light_mappo/results/HighwayEnv/MyEnv/mappo/check/run2/models/actor.pt (torch, 48391 bytes, 16 tensors)

base.feature_norm.weight f4 [25]
0.78234816 0.88747466 1.0294225 0.9444433 0.9871408 0.8824692 0.94579023 1.2363764
0.9280462 1.0384866 0.87015927 1.0605825 1.042735 1.0827204 0.9126741 0.9502517
0.92839694 1.1627572 0.94037354 0.92052454 0.9807363 1.1818087 1.0472406 0.92294055
0.9896981
00000000: f847 483f 8a31 633f 1ec4 833f 09c7 713f
00000010: 42b5 7c3f 80e9 613f 4f1f 723f 9541 9e3f
00000020: 7094 6d3f 21ed 843f c2c2 5e3f 2bc1 873f
00000030: 5778 853f 9596 8a3f 03a5 693f b243 733f
00000040: 6cab 6d3f 3ad5 943f 52bc 703f 7fa7 6b3f
00000050: 8911 7b3f 8245 973f fb0b 863f d545 6c3f
00000060: db5c 7d3f

base.feature_norm.bias f4 [25]
-0.20889938 -0.11922459 0.023373708 0.060981475 0.058898546 -0.11577501 0.06169557 -0.015260523
0.08678637 0.02188391 -0.14530602 0.010918646 -0.009851754 0.002472884 0.15242282 -0.062207483
0.025301833 0.003963869 0.042840455 0.09987161 -0.06881441 0.042327106 0.031177718 0.0837753
0.051577423
00000000: b8e9 55be 062c f4bd 387a bf3c b6c7 793d
00000010: 9a3f 713d 731b edbd 7eb4 7c3d 4607 7abc
00000020: 0dbd b13d e345 b33c 1acb 14be 1fe4 323c
00000030: 4069 21bc 1c10 223b ba14 1c3e 46cd 7ebd
00000040: ca45 cf3c 58e3 813b 7979 2f3d 7d89 cc3d
00000050: 92ee 8cbd 305f 2d3d 6a68 ff3c 6292 ab3d
00000060: d942 533d

base.mlp.fc1.0.weight f4 [64, 25]
0.2347448 -0.28811803 -0.008038517 0.09230064 -0.0022617984 0.22316119 -0.045082565 -0.46723488
0.17961997 -0.04302187 -0.0068744817 0.17719914 -0.26167405 -0.26731646 -0.04207403 0.1091694
0.15004072 -0.08182673 0.039044954 -0.22968523 -0.008229603 0.25589982 0.107328266 -0.077611744
-0.20041142 0.23097141 0.32509968 -0.29237422 0.038112205 0.0006305015 0.10950728 0.08269745
0.08802909 -0.016196758 0.010254559 -0.3328648 -0.1155325 -0.04533605 -0.38048092 -0.1561526
-0.0040280162 0.17279732 0.1700721 0.2865804 -0.007135749 -0.49350712 -0.37228683 0.17668405
-0.026038935 -0.10571286 0.12659687 0.16842514 -0.39223695 -0.25005582 -0.252344 -0.17350356
-0.26913878 -0.12549603 -0.022753194 0.023235241 -0.17769621 -0.2136201 0.11545628 0.39120874
-0.079906605 0.115431435 0.14765242 0.4572397 0.107969694 -0.08422626 0.22404782 0.2555545
-0.05789057 -0.10473285 -0.17049402 0.05623191 -0.193392 -0.0020106665 0.14535451 -0.08088563
-0.05844774 -0.06591243 -0.13754785 0.46054137 0.22080301 -0.24124755 0.31462905 0.10453623
0.038280334 -0.18285985 -0.08974432 0.42669007 0.13572611 -0.14696059 0.24647965 -0.032802787
-0.34027088 0.08832397 -0.14908947 0.110887736 -0.16306925 0.09702909 0.123314135 -0.15843485
-0.14782445 -0.20306422 0.024840452 -0.47597435 -0.06330136 -0.011079389 0.09079958 0.21543561
0.10897359 0.07131092 0.0075283987 -0.14717256 -0.062248293 -0.3578799 -0.01255526 0.38375252
-0.11690521 0.10896379 0.3187157 -0.08941993 -0.19434217 0.08882893 0.069478996 -0.23415737
-0.020081377 -0.33387297 -0.11533776 0.14158806 0.33208182 0.019611396 -0.2735043 -0.023587685
-0.090936765 -0.3838054 0.2585952 -0.22145277 0.013806934 -0.18124747 0.28262728 -0.051930647
-0.20634444 0.063517906 0.35293758 -0.14146139 0.07381196 -0.009121287 0.124621496 -0.06448008
0.26236334 -0.16956203 0.1670893 -0.1923724 0.41175193 0.018440828 0.35663167 0.025660373
-0.04607076 0.36069623 0.05534234 -0.14436996 -0.07490949 -0.07842804 -0.0554495 -0.020712525
0.18218175 0.19205351 -0.11863918 0.17855099 -0.28401625 0.03208456 0.2302877 0.058490127
0.0926231 0.018981433 0.10782565 0.15814738 -0.0056041502 0.25347295 0.09434925 0.1045926
0.24054283 -0.15972596 0.040041342 -0.07604146 -0.0029337932 -0.45662966 -0.18028963 0.14679264
-0.3143432 -0.0034052227 -0.1241476 0.02097837 -0.24608538 0.20025061 0.028967593 0.16572781
-0.15371312 -0.015106735 -0.08763289 0.19984785 -0.23769593 0.22694847 -0.012371473 -0.17080885
0.11249393 -0.020878376 -0.01667687 -0.39121622 0.23860888 -0.2003895 0.23051456 0.08151782
-0.039827872 -0.39088237 -0.022694008 0.11408102 0.47334936 0.053399485 0.0014736657 0.30419472
0.048186485 -0.18386558 0.24000268 -0.092047274 -0.09949559 0.11299156 0.07390321 0.22617362
0.16990763 0.22291824 0.20505646 0.04777892 -0.114034414 -0.2882253 0.010003258 0.010646682
-0.19917046 -0.05332798 0.061238784 0.15163544 0.27347165 0.11912586 -0.18444778 -0.081236444
0.033654567 -0.07561037 0.101353854 -0.25464657 0.23156591 -0.005531851 -0.13970096 -0.124636784
00000000: f160 703e 3584 93be fcb3 03bc 1e08 bd3d
00000010: ae3a 14bb 5e84 643e 7fa8 38bd 6939 efbe
00000020: 4cee 373e b337 30bd 5543 e1bb b173 353e
00000030: 24fa 85be b4dd 88be d155 2cbd 3594 df3d
00000040: 46a4 193e c694 a7bd 9aed 1f3d 9b32 6bbe
00000050: 75d5 06bc 4d05 833e ecce db3d e8f2 9ebd
00000060: a738 4dbe c583 6c3e 7773 a63e 13b2 95be
00000070: 8b1b 1c3d 3d48 253a 5a45 e03d 485d a93d
00000080: 9848 b43d 10af 84bc bd02 283c 416d aabe
00000090: 4e9c ecbd 4bb2 39bd 65ce c2be 78e6 1fbe
000000a0: 73fd 83bb c8f1 303e 6127 2e3e abba 923e
000000b0: 00d3 e9bb f7ac fcbe 619c bebe aaec 343e
000000c0: 9b4f d5bc fc7f d8bd 9ca2 013e a477 2c3e
000000d0: 48d3 c8be 5107 80be 3c33 81be ebaa 31be
000000e0: 8fcc 89be 0882 00be e864 babc d557 be3c
000000f0: fff5 35be 3abf 5abe 5874 ec3d 834c c83e
00000100: 13a6 a3bd 5167 ec3d 3232 173e 521b ea3e
00000110: 371f dd3d d17e acbd cb6c 653e 0ad8 823e
00000120: aa1e 6dbd 2d7e d6bd fc95 2ebe 6e53 663d
00000130: 8d08 46be 63c5 03bb d0d7 143e 5da7 a5bd
00000140: e666 6fbd 19fd 86bd 58d9 0cbe 14cc eb3e
00000150: 2f1a 623e 9909 77be 0f17 a13e 1717 d63d
00000160: d7cb 1c3d 9d3f 3bbe dfcb b7bd 1f77 da3e
00000170: c9fb 0a3e d67c 16be 2965 7c3e 375c 06bd
00000180: fc37 aebe 33e3 b43d e9aa 18be 1c19 e33d
00000190: a0fb 26be 30b7 c63d 1f8c fc3d bf3c 22be
000001a0: 4b5f 17be 11f0 4fbe 347e cb3c e9b2 f3be
000001b0: 25a4 81bd 5386 35bc 21f5 b93d 279b 5c3e
000001c0: 8c2d df3d 760b 923d c9b0 f63b 67b4 16be
000001d0: 11f8 7ebd 093c b7be 94b4 4dbc 367b c43e
000001e0: 006c efbd 6828 df3d b42e a33e cc21 b7bd
000001f0: a201 47be f1eb b53d 014b 8e3d f3c6 6fbe
00000200: b381 a4bc 66f1 aabe 3436 ecbd 76fc 103e
00000210: a106 aa3e 14a8 a03c c108 8cbe f63a c1bc
00000220: 0e3d babd 2482 c4be 9766 843e 84c4 62be
00000230: 7a36 623c f098 39be 86b4 903e 3bb5 54bd
00000240: f54b 53be ad15 823d 3cb4 b43e 41db 10be
00000250: ba2a 973d 7371 15bc 8e39 ff3d 220e 84bd
00000260: 7d54 863e aba1 2dbe 7519 2b3e 45fd 44be
00000270: 26d1 d23e 3811 973c 6d98 b63e b435 d23c
00000280: b1b4 3cbd 2dad b83e a6ae 623d b8d5 13be
00000290: 266a 99bd e19e a0bd 041f 63bd 50ad a9bc
000002a0: da8d 3a3e ada9 443e 19f9 f2bd 12d6 363e
000002b0: 946a 91be 196b 033d 8ad0 6b3e 5893 6f3d
000002c0: 2eb1 bd3d f37e 9b3c b2d3 dc3d 63f1 213e
000002d0: 05a3 b7bb 35c7 813e 2e3a c13d a534 d63d
000002e0: dc50 763e 348f 23be 6402 243d a0bb 9bbd
000002f0: e244 40bb 5dcb e9be d89d 38be cf50 163e
00000300: 98f1 a0be 282a 5fbb 1941 febd d5da ab3c
00000310: cefd 7bbe 7f0e 4d3e 724d ed3c 8db4 293e
00000320: f966 1dbe 3d82 77bc df78 b3bd eaa4 4c3e
00000330: 9066 73be 2e65 683e b8b1 4abc 84e8 2ebe
00000340: 3863 e63d 2109 abbc ee9d 88bc 7e4d c8be
00000350: e355 743e e832 4dbe 020c 6c3e d1f2 a63d
00000360: 8d22 23bd bc21 c8be c9e8 b9bc 4fa3 e93d
00000370: d95a f23e 6bb9 5a3d 0428 c13a 69bf 9b3e
00000380: 315f 453d 4247 3cbe 43c3 753e 4883 bcbd
00000390: 58c4 cbbd 1e68 e73d 915a 973d 0f9a 673e
000003a0: 44fc 2d3e ae44 643e 52fa 513e d4b3 433d
000003b0: e08a e9bd 4492 93be b4e4 233c 6c6f 2e3c
000003c0: 57f3 4bbe 716e 5abd 85d5 7a3d 5246 1b3e
000003d0: 7a04 8c3e 42f8 f33d e1df 3cbe 4b5f a6bd
000003e0: 5fd9 093d 9cd9 9abd 9c92 cf3d 0961 82be
000003f0: 9d1f 6d3e 8844 b5bb c50d 0fbe 9241 ffbd

base.mlp.fc1.0.bias f4 [64]
0.03397562 0.021208907 0.007910608 -0.06742422 -0.009373158 0.00037629338 -0.020823441 -0.10509277
0.021877436 -0.06460496 0.059058595 -0.040561 0.07389595 -0.022779422 -0.054323126 -0.07557705
-0.0026669842 -0.048441686 -0.04301977 -0.096270576 -0.034049038 -0.039347302 0.07380826 -0.007706593
0.017110307 -0.0060897563 0.0 -0.07311502 0.015382245 -0.05465787 0.046095178 -0.04556446
0.0024029866 0.05007106 -0.018130932 -0.016298668 0.14139678 -0.05279201 0.042830594 -0.045830674
-0.14220633 0.09155665 0.02964474 -0.02173487 -0.0032972302 -0.06478997 0.0069709164 -0.041250784
-0.017586399 -0.06989155 -0.017480683 0.1977392 0.015769439 0.01020966 0.029114354 0.06125111
-0.070721865 -0.03862774 0.0011076684 -0.04298653 -0.0136250835 0.016242 -0.052761402 -0.025837217
00000000: 052a 0b3d 4dbe ad3c 7f9b 013c b615 8abd
00000010: e091 19bc 3e49 c539 ec95 aabc e13a d7bd
00000020: 4f38 b33c 9b4f 84bd 6de7 713d 4b23 26bd
00000030: c356 973d e99b babc ed81 5ebd 24c8 9abd
00000040: 92c8 2ebb ca6a 46bd 8035 30bd 8229 c5bd
00000050: 0177 0bbd a32a 21bd c928 973d 9687 fcbb
00000060: ea2a 8c3c 948c c7bb 0000 0000 54bd 95bd
00000070: d005 7c3c eee0 5fbd 4cce 3c3d cda1 3abd
00000080: 6d7b 1d3b 5017 4d3d 5287 94bc c984 85bc
00000090: 51ca 103e 6f3c 58bd 226f 2f3d f2b8 3bbd
000000a0: 899e 11be 0e82 bb3d 87d9 f23c 530d b2bc
000000b0: 5816 58bb 9bb0 84bd 496c e43b 95f6 28bd
000000c0: 5a11 90bc 4d23 8fbd a633 8fbc 257c 4a3e
000000d0: e92e 813c 6b46 273c 3a81 ee3c 72e2 7a3d
000000e0: a0d6 90bd 1f38 1ebd 2f2f 913a a512 30bd
000000f0: be3b 5fbc f10d 853c 571c 58bd 92a8 d3bc

base.mlp.fc1.2.weight f4 [64]
1.0883664 1.109818 1.0689067 0.9341311 0.81647193 1.0826986 0.88556933 1.0031487
1.1673 0.9150743 0.91808325 0.9120683 1.1366172 1.0783508 1.0300517 0.78144574
0.9966773 0.9473827 0.9944952 0.9547727 0.942608 1.0173726 0.8688156 0.94518036
1.1365426 1.0560542 0.98705167 0.92926216 1.0205743 0.93836004 1.2331238 1.0183091
1.0515941 1.2149465 0.9998518 0.9536627 0.94516385 0.97807765 1.0612981 1.0308669
0.9676184 1.1196973 1.0870149 0.9157021 1.051926 1.0078715 1.0609192 0.9580791
1.0115525 0.93177843 0.962261 1.0453345 0.9868859 1.0684928 1.0533943 0.99580544
0.95497185 1.0595464 1.1524101 1.0102235 1.199654 0.98580945 1.0191066 0.8182213
00000000: 974f 8b3f 840e 8e3f efd1 883f 3723 6f3f
00000010: 4e04 513f de95 8a3f acb4 623f 2d67 803f
00000020: 166a 953f 4f42 6a3f 8107 6b3f 4f7d 693f
00000030: ac7c 913f 6607 8a3f bcd8 833f d40c 483f
00000040: 3e26 7f3f ac87 723f 3d97 7e3f fc6b 743f
00000050: c24e 713f 4439 823f b36a 5e3f 57f7 713f
00000060: 3a7a 913f c92c 873f 6baf 7c3f 20e4 6d3f
00000070: 2ea2 823f 5d38 703f 00d7 9d3f f457 823f
00000080: a39a 863f 5e83 9b3f 4af6 7f3f 3d23 743f
00000090: 42f6 713f 4c63 7a3f 9ed8 873f 72f3 833f
000000a0: d7b5 773f 3e52 8f3f 4e23 8b3f 746b 6a3f
000000b0: 83a5 863f ef01 813f 33cc 873f ac44 753f
000000c0: 8d7a 813f 0889 6e3f bd56 763f 85cd 853f
000000d0: 8ea4 7c3f 5fc4 883f a0d5 863f 1bed 7e3f
000000e0: 0979 743f 379f 873f 2d82 933f 014f 813f
000000f0: 438e 993f 025e 7c3f 1672 823f f376 513f

base.mlp.fc1.2.bias f4 [64]
0.017847918 -0.0035419746 0.028755782 0.055058032 0.13407849 -0.005737605 0.056042343 -0.1231107
-0.011432323 -0.10139594 0.043451376 -0.035052843 0.024181819 -0.025874412 -0.016024532 0.19578004
0.047616586 -0.0660133 0.023524854 -0.0907398 0.03699334 -0.011665691 0.034909587 -0.0074251145
-0.040258255 0.0026176933 0.024900395 -0.044484153 0.0358635 0.04103672 0.034727614 -0.014135937
-0.014027426 0.018954324 0.026468225 0.04192499 0.08841209 -0.06856342 0.091367826 -0.020501118
0.035262577 0.050693538 0.014985843 0.075790875 -0.03695498 0.046597637 -0.012097727 -0.058086608
0.004656411 0.004883207 -0.032014884 0.20710154 0.0037872305 0.006078906 0.020635175 0.0770766
-0.03717593 0.0049920245 -0.011653033 -0.0753299 -0.02845524 0.0057395757 0.043355957 0.15875015
00000000: cc35 923c 7920 68bb 3f91 eb3c 8884 613d
00000010: df4b 093e 8502 bcbb a88c 653d 7621 fcbd
00000020: a34e 3bbc ada8 cfbd 12fa 313d 9293 0fbd
00000030: f318 c63c 93f6 d3bc e145 83bc 907a 483e
00000040: 9c09 433d fb31 87bd 32b7 c03c cad5 b9bd
00000050: 5486 173d 7421 3fbc 5bfd 0e3d 604e f3bb
00000060: d7e5 24bd 9b8d 2b3b eafb cb3c 0435 36bd
00000070: 9be5 123d 1f16 283d 8b3e 0e3d 6b9a 67bc
00000080: 4ad3 65bc 1946 9b3c e4d3 d83c 8ab9 2b3d
00000090: 6611 b53d fa6a 8cbd 0e1f bb3d f6f1 a7bc
000000a0: 7e6f 103d 07a4 4f3d 2e87 753c 3f38 9b3d
000000b0: 1b5e 17bd 2add 3e3d 8b35 46bc 39ec 6dbd
000000c0: ce94 983b 4f03 a03b 0a22 03bd 6d12 543e
000000d0: 2f33 783b 8f31 c73b 190b a93c 56da 9d3d
000000e0: ca45 18bd 2394 a33b 5dec 3ebc 9046 9abd
000000f0: f71a e9bc 0d13 bc3b 0496 313d 668f 223e

base.mlp.fc_h.0.weight f4 [64, 64]
-0.009685346 0.2671996 0.1450293 -0.08081613 -0.16282597 0.075327024 0.050642382 0.083785065
-0.05526456 0.18139122 0.2666681 -0.29091218 -0.19854175 0.073476434 -0.17629354 -0.19671607
0.26644972 0.2863823 0.013488284 0.07426117 -0.104981415 -0.051518768 0.046103552 -0.15577272
-0.087015204 0.12879209 -0.27221423 0.054178108 0.12555823 -0.070748 0.009267187 -0.118201986
0.009994216 -0.017689979 -0.4212961 -0.1550317 0.1415749 0.2613467 0.18064027 0.057636347
0.05758495 0.027953476 -0.12634674 -0.41247177 0.2010962 0.12227776 -0.013337296 -0.094265796
0.06534016 0.09223053 -0.4618881 -0.04894958 0.20431294 0.12413396 -0.29066497 -0.23356669
0.11594883 -0.1997659 -0.018757341 0.054356262 0.123995386 -0.2208272 0.29206118 0.079998344
-0.010487573 -0.2575309 -0.023489416 -0.2549837 0.19328019 -0.0306752 -0.21073762 0.07482133
-0.043263815 0.056516778 -0.102968425 -0.042327426 0.105385736 -0.14599657 0.11143931 0.0095269075
0.3336707 0.035711676 0.27931884 0.09940216 0.0082510775 -0.3828686 0.24300404 -0.09511551
-0.1803147 0.09314769 -0.17532007 -0.25967905 -0.13760266 0.045925513 0.19010995 -0.025352662
0.05713698 0.023798691 0.0510884 -0.051592436 -0.12368727 0.22832283 -0.24658498 0.2774472
0.04542286 -0.1881229 -0.16908522 -0.15050946 -0.19130524 -0.13701485 0.036167454 -0.13390772
-9.3542665e-05 0.1951975 0.37484023 -0.3075139 0.0061319033 -0.07478211 0.050291393 0.012998492
-0.008545139 -0.081525415 0.15096597 0.41711462 0.3367112 -0.015495592 -0.119523 0.3381305
-0.285833 0.0784362 -0.28545824 0.23859158 -0.16731384 0.1944605 0.0927629 -0.2503453
0.14739896 0.051808108 -0.26342392 0.11794095 0.08284139 0.14865091 0.06954275 -0.24512571
0.11195289 0.23043174 -0.095930524 0.3584415 0.049615998 -0.14221273 0.12746243 0.033899575
-0.01967455 -0.32553503 -0.15990075 -0.08422626 0.035374433 -0.14109582 0.10808021 -0.1367558
0.027923651 0.09623415 -0.06145214 0.40967107 -0.09680105 -0.07573379 0.17899874 0.18908633
0.32681108 -0.0075681536 -0.074745245 -0.08020658 0.06371878 -0.18163155 0.011583066 0.059983097
-0.10560907 -0.15356642 0.047145873 0.035353575 -0.18182616 -0.093403146 0.037060678 -0.3999727
-0.15210664 -0.16795854 -0.18573658 0.26323053 -0.39069492 0.08966775 -0.12342024 -0.06695283
-0.28278917 -0.20493607 -0.27085036 -0.03404302 -0.035775024 -0.08386482 0.20393178 -0.019784335
-0.10576221 0.13948607 -0.00913103 -0.08818243 -0.112486735 0.09406813 0.117664695 -0.061750423
0.05957569 0.060659006 -0.08568857 0.10482164 0.0699828 -0.07143398 -0.29997316 0.11152978
-0.052367225 -0.0104671465 0.07895209 0.19789888 0.08278436 -0.10442805 0.35114238 -0.25479198
0.10710806 -0.23230171 -0.03091941 -0.21986519 0.028388081 -0.03602033 0.0738169 -0.29192495
-0.22043438 0.28260761 -0.14688174 -0.046952568 0.09725332 0.2330324 -0.23555285 0.11874649
-0.12607406 -0.31585547 -0.04374061 -0.080440864 -0.14610435 0.2299037 -0.028040584 0.053819556
0.0587265 0.14352544 0.38302228 0.15113144 0.14274922 -0.04972938 -0.5690604 0.21921258
00000000: 49af 1ebc 63ce 883e 9082 143e ed82 a5bd
00000010: dabb 26be 0e45 9a3d 636e 4f3d 8197 ab3d
00000020: 175d 62bd 9fbe 393e b988 883e 71f2 94be
00000030: 874e 4bbe d07a 963d 4b86 34be f06f 49be
00000040: 196c 883e b3a0 923e f7fd 5c3c 3e16 983d
00000050: 7f00 d7bd 5805 53bd 14d7 3c3d e282 1fbe
00000060: 0735 b2bd 13e2 033e aa5f 8bbe dde9 5d3d
00000070: 5692 003e 54e4 90bd 66d5 173c e213 f2bd
00000080: c8be 233c 93ea 90bc 1fb4 d7be a1c0 1ebe
00000090: 03f9 103e 3ccf 853e c3f9 383e 1714 6c3d
000000a0: 32de 6b3d b0fe e43c 0a61 01be 802f d3be
000000b0: 2aec 4d3e c36c fa3d ad84 5abc 6d0e c1bd
000000c0: 10d1 853d 5ce3 bc3d 997c ecbe 5b7f 48bd
000000d0: 6937 513e f239 fe3d 0ad2 94be 1b2c 6fbe
000000e0: 9576 ed3d 6f8f 4cbe ffa8 99bc aca4 5e3d
000000f0: 4bf1 fd3d 8720 62be 0b89 953e 2cd6 a33d
00000100: 12d4 2bbc 17db 83be e06c c0bc 398d 82be
00000110: 3eeb 453e 8f4a fbbc 9acb 57be ed3b 993d
00000120: 6635 31bd 237e 673d 1ce1 d2bd 865f 2dbd
00000130: 7ad4 d73d 2080 15be 4b3a e43d bf16 1c3c
00000140: e3d6 aa3e 6846 123d e102 8f3e 5c93 cb3d
00000150: 872f 073c 5a07 c4be 0dd6 783e eccb c2bd
00000160: 6ba4 38be 37c4 be3d 1b87 33be a7f4 84be
00000170: b6e7 0cbe 641c 3c3d 2fac 423e 63b0 cfbc
00000180: 7708 6a3d 79f5 c23c 1242 513d 9752 53bd
00000190: c04f fdbd 76cd 693e c680 7cbe 8f0d 8e3e
000001a0: 520d 3a3d 4aa3 40be ad24 2dbe 271f 1abe
000001b0: 85e5 43be 9f4d 0cbe 5324 143d 1b1f 09be
000001c0: 562c c4b8 dae1 473e 0feb bf3e 7672 9dbe
000001d0: 22ee c83b 5d27 99bd 59fe 4d3d a1f7 543c
000001e0: e900 0cbc ccf6 a6bd d396 1a3e 0c90 d53e
000001f0: 6965 ac3e 39e1 7dbc 7ac8 f4bd 711f ad3e
00000200: b458 92be 29a3 a03d 9527 92be 5a51 743e
00000210: 5254 2bbe a720 473e 7afa bd3d 422d 80be
00000220: c1ef 163e bd34 543d 80df 86be 068b f13d
00000230: bfa8 a93d f237 183e 6e6c 8e3d 3c02 7bbe
00000240: 8f47 e53d 4cf6 6b3e 3977 c4bd a585 b73e
00000250: 253a 4b3d 37a0 11be 8385 023e 48da 0a3d
00000260: 862c a1bc 87ac a6be 06bd 23be d17e acbd
00000270: c8e4 103d 6c7b 10be 2859 dd3d b609 0cbe
00000280: 24c0 e43c 6916 c53d 3db5 7bbd 68c0 d13e
00000290: a13f c6bd 511a 9bbd 724b 373e d99f 413e
000002a0: c853 a73e 46fe f7bb 0914 99bd 5943 a4bd
000002b0: fe7e 823d 9ffd 39be e6c6 3d3c d6b0 753d
000002c0: 9149 d8bd 8440 1dbe 081c 413d e9ce 103d
000002d0: a330 3abe 264a bfbd f0cc 173d 39c9 ccbe
000002e0: d8c1 1bbe 53fd 2bbe bb31 3ebe 27c6 863e
000002f0: 2a09 c8be baa3 b73d c0c3 fcbd 911e 89bd
00000300: bec9 90be c3da 51be e6ac 8abe b270 0bbd
00000310: d588 12bd 52c1 abbd 7ed3 503e c212 a2bc
00000320: dc99 d8bd 70d5 0e3e 519a 15bc fd98 b4bd
00000330: 725f e6bd cba6 c03d 30fa f03d 03ee 7cbd
00000340: a405 743d 9475 783d 7d7d afbd baac d63d
00000350: 2453 8f3d fa4b 92bd 1596 99be ba69 e43d
00000360: 047f 56bd 657e 2bbc a2b1 a13d 01a6 4a3e
00000370: d98a a93d 60de d5bd efc8 b33e 1874 82be
00000380: 785b db3d 80e0 6dbe b44a fdbc 5724 61be
00000390: 1f8e e83c 0e8a 13bd 512d 973d 3077 95be
000003a0: 8db9 61be f2b1 903e 2b68 16be 5651 40bd
000003b0: c02c c73d 0ca0 6e3e c434 71be 5c31 f33d
000003c0: 8f19 01be cfb7 a1be 5b29 33bd 2ebe a4bd
000003d0: 619c 15be e06b 6b3e 5eb5 e5bc e571 5c3d
000003e0: 338b 703d 55f8 123e 7f1b c43e 33c2 1a3e
000003f0: da2c 123e 09b1 4bbd f1ad 11bf 4379 603e

base.mlp.fc_h.0.bias f4 [64]
0.0 0.0 0.0 0.0 0.0 0.0 0.0 0.0
0.0 0.0 0.0 0.0 0.0 0.0 0.0 0.0
0.0 0.0 0.0 0.0 0.0 0.0 0.0 0.0
0.0 0.0 0.0 0.0 0.0 0.0 0.0 0.0
0.0 0.0 0.0 0.0 0.0 0.0 0.0 0.0
0.0 0.0 0.0 0.0 0.0 0.0 0.0 0.0
0.0 0.0 0.0 0.0 0.0 0.0 0.0 0.0
0.0 0.0 0.0 0.0 0.0 0.0 0.0 0.0
00000000: 0000 0000 0000 0000 0000 0000 0000 0000
00000010: 0000 0000 0000 0000 0000 0000 0000 0000
00000020: 0000 0000 0000 0000 0000 0000 0000 0000
00000030: 0000 0000 0000 0000 0000 0000 0000 0000
00000040: 0000 0000 0000 0000 0000 0000 0000 0000
00000050: 0000 0000 0000 0000 0000 0000 0000 0000
00000060: 0000 0000 0000 0000 0000 0000 0000 0000
00000070: 0000 0000 0000 0000 0000 0000 0000 0000
00000080: 0000 0000 0000 0000 0000 0000 0000 0000
00000090: 0000 0000 0000 0000 0000 0000 0000 0000
000000a0: 0000 0000 0000 0000 0000 0000 0000 0000
000000b0: 0000 0000 0000 0000 0000 0000 0000 0000
000000c0: 0000 0000 0000 0000 0000 0000 0000 0000
000000d0: 0000 0000 0000 0000 0000 0000 0000 0000
000000e0: 0000 0000 0000 0000 0000 0000 0000 0000
000000f0: 0000 0000 0000 0000 0000 0000 0000 0000

base.mlp.fc_h.2.weight f4 [64]
1.0 1.0 1.0 1.0 1.0 1.0 1.0 1.0
1.0 1.0 1.0 1.0 1.0 1.0 1.0 1.0
1.0 1.0 1.0 1.0 1.0 1.0 1.0 1.0
1.0 1.0 1.0 1.0 1.0 1.0 1.0 1.0
1.0 1.0 1.0 1.0 1.0 1.0 1.0 1.0
1.0 1.0 1.0 1.0 1.0 1.0 1.0 1.0
1.0 1.0 1.0 1.0 1.0 1.0 1.0 1.0
1.0 1.0 1.0 1.0 1.0 1.0 1.0 1.0
00000000: 0000 803f 0000 803f 0000 803f 0000 803f
00000010: 0000 803f 0000 803f 0000 803f 0000 803f
00000020: 0000 803f 0000 803f 0000 803f 0000 803f
00000030: 0000 803f 0000 803f 0000 803f 0000 803f
00000040: 0000 803f 0000 803f 0000 803f 0000 803f
00000050: 0000 803f 0000 803f 0000 803f 0000 803f
00000060: 0000 803f 0000 803f 0000 803f 0000 803f
00000070: 0000 803f 0000 803f 0000 803f 0000 803f
00000080: 0000 803f 0000 803f 0000 803f 0000 803f
00000090: 0000 803f 0000 803f 0000 803f 0000 803f
000000a0: 0000 803f 0000 803f 0000 803f 0000 803f
000000b0: 0000 803f 0000 803f 0000 803f 0000 803f
000000c0: 0000 803f 0000 803f 0000 803f 0000 803f
000000d0: 0000 803f 0000 803f 0000 803f 0000 803f
000000e0: 0000 803f 0000 803f 0000 803f 0000 803f
000000f0: 0000 803f 0000 803f 0000 803f 0000 803f

base.mlp.fc_h.2.bias f4 [64]
0.0 0.0 0.0 0.0 0.0 0.0 0.0 0.0
0.0 0.0 0.0 0.0 0.0 0.0 0.0 0.0
0.0 0.0 0.0 0.0 0.0 0.0 0.0 0.0
0.0 0.0 0.0 0.0 0.0 0.0 0.0 0.0
0.0 0.0 0.0 0.0 0.0 0.0 0.0 0.0
0.0 0.0 0.0 0.0 0.0 0.0 0.0 0.0
0.0 0.0 0.0 0.0 0.0 0.0 0.0 0.0
0.0 0.0 0.0 0.0 0.0 0.0 0.0 0.0
00000000: 0000 0000 0000 0000 0000 0000 0000 0000
00000010: 0000 0000 0000 0000 0000 0000 0000 0000
00000020: 0000 0000 0000 0000 0000 0000 0000 0000
00000030: 0000 0000 0000 0000 0000 0000 0000 0000
00000040: 0000 0000 0000 0000 0000 0000 0000 0000
00000050: 0000 0000 0000 0000 0000 0000 0000 0000
00000060: 0000 0000 0000 0000 0000 0000 0000 0000
00000070: 0000 0000 0000 0000 0000 0000 0000 0000
00000080: 0000 0000 0000 0000 0000 0000 0000 0000
00000090: 0000 0000 0000 0000 0000 0000 0000 0000
000000a0: 0000 0000 0000 0000 0000 0000 0000 0000
000000b0: 0000 0000 0000 0000 0000 0000 0000 0000
000000c0: 0000 0000 0000 0000 0000 0000 0000 0000
000000d0: 0000 0000 0000 0000 0000 0000 0000 0000
000000e0: 0000 0000 0000 0000 0000 0000 0000 0000
000000f0: 0000 0000 0000 0000 0000 0000 0000 0000

base.mlp.fc2.0.0.weight f4 [64, 64]
-0.1753343 0.42985207 0.1849481 -0.08345874 -0.15643393 0.12367095 0.023045726 0.059666414
-0.22848299 0.14094792 0.15553951 -0.39623564 -0.22765824 0.1612444 -0.17530356 -0.15109803
0.18531634 0.34741428 0.11042189 0.06627596 -0.08976398 -0.057590596 -0.011519165 -0.2460112
0.10867857 0.20884131 -0.2741628 0.11033203 0.33442292 -0.080923356 0.102200896 -0.1332983
0.07737426 -0.016630424 -0.3917646 -0.1589582 -0.025096934 0.31474203 0.07398135 0.057943605
0.035720773 0.06730363 -0.45835453 -0.4177692 0.13616668 0.04013487 -0.042057026 -0.01336599
-0.002221005 0.099661715 -0.4717457 0.002932415 0.3584278 -0.020630674 -0.43281174 -0.27870545
0.24440913 -0.11572261 0.16004169 0.0641375 0.250253 -0.18125522 0.26478815 0.23242241
-0.15373611 -0.39284754 0.043610618 -0.2512636 0.18664874 0.08080996 -0.17173928 -0.0018907883
-0.11652629 0.18246244 0.037642594 0.015721157 0.15565693 -0.06561077 0.1268982 0.0013101763
0.17888533 -0.008381542 0.22380765 0.07016499 -0.010899225 -0.3533047 0.23220438 -0.142773
-0.21487969 0.03520092 -0.16195087 -0.20215668 -0.06514873 0.06544053 0.4333359 -0.03763183
0.016252376 0.034135543 -0.09093762 -0.042509623 -0.11021875 0.32290217 -0.38510326 0.29050636
0.018025326 -0.36410484 -0.09790988 -0.14155918 -0.17913386 -0.17893608 -0.07938247 -0.12716804
-0.027522754 0.26139376 0.4875791 -0.13128193 -0.0402214 -0.054188326 0.02159875 0.0040663495
0.017911747 -0.06320685 0.27471972 0.3679713 0.42803288 0.01818918 -0.16727598 0.40761766
-0.38563207 0.1717482 -0.23054211 0.28919277 -0.08006473 0.072759174 0.1356321 -0.2113595
0.20151663 -0.013357151 -0.2961755 0.010836848 0.08819454 0.13227022 0.12059066 -0.21422417
0.14013287 0.16720623 -0.03906804 0.43336624 0.14411117 -0.07931459 0.12247267 0.015215825
0.117820285 -0.18888773 -0.10710812 -0.11705683 -0.07584491 -0.07210234 0.046537966 -0.032441106
0.1627205 -0.055472557 0.06995822 0.46093404 -0.15405117 -0.11131957 0.2615928 0.24274197
0.37070298 -0.037392255 -0.10565827 -0.032495253 -0.005894488 -0.24558647 0.018254394 -0.048778184
-0.105834186 -0.07507877 -0.061145622 -0.14751595 -0.06671444 -0.09593332 -0.00723555 -0.4202051
-0.11276671 -0.23008218 -0.22729556 0.29339287 -0.35099164 0.004791927 0.0025133318 -0.06390311
-0.22294216 -0.30017838 -0.28585166 -0.053335007 -0.045404542 -0.015792497 0.23038217 0.047564663
-0.09287369 0.15685004 0.0014466771 -0.01533596 -0.19988021 0.0345922 0.09864248 -0.13007462
0.062389217 -0.01440217 -0.17954719 0.18969242 0.022238713 -0.08668171 -0.40096042 0.095762186
-0.12959124 -0.014482885 0.05933142 0.3033053 0.07257611 -0.111433335 0.4401383 -0.27844867
0.023649462 -0.0978502 -0.050486147 -0.24235384 -0.11532286 0.077470854 0.09516489 -0.3063394
-0.21202807 0.32343063 -0.106005706 -0.06826796 0.1583985 0.13837934 -0.28805894 0.24676257
-0.23022838 -0.32288903 -0.00077240466 -0.17074902 -0.23820649 0.23389716 0.009610922 0.14013423
0.105216734 0.028515188 0.47095945 -0.0048106 0.062470365 0.08575768 -0.54765224 0.18544315
00000000: d68a 33be 9215 dc3e 0963 3d3e 6aec aabd
00000010: 3730 20be 3247 fd3d 64ca bc3c c564 743d
00000020: 72f7 69be a754 103e c045 1f3e 66df cabe
00000030: 3e1f 69be 411d 253e c782 33be 71b9 1abe
00000040: 91c3 3d3e 49e0 b13e df24 e23d b1bb 873d
00000050: 2dd6 b7bd 1ee4 6bbd e1ba 3cbc 5cea 7bbe
00000060: df92 de3d 7fda 553e 115f 8cbe c2f5 e13d
00000070: 7b39 ab3e 25bb a5bd b44e d13d 597f 08be
00000080: 6576 9e3d 873c 88bc 5f95 c8be f0c5 22be
00000090: 1698 cdbc de25 a13e 8983 973d 4656 6d3d
000000a0: f24f 123d 7cd6 893d 72ad eabe d8e5 d5be
000000b0: 476f 0b3e 7664 243d fd43 2cbd 06fd 5abc
000000c0: 488e 11bb 711b cc3d a788 f1be c32d 403b
000000d0: d983 b73e a901 a9bc 8099 ddbe 7bb2 8ebe
000000e0: 6346 7a3e faff ecbd f8e1 233e 865a 833d
000000f0: 2921 803e f89a 39be 5092 873e 2400 6e3e
00000100: 006d 1dbe 5023 c9be 0ca1 323d 9fa5 80be
00000110: d920 3f3e b17f a53d 6cdc 2fbe 54d4 f7ba
00000120: 56a5 eebd 6fd7 3a3e 1f2f 1a3d a8c9 803c
00000130: 8864 1f3e f05e 86bd 9af1 013e 39ba ab3a
00000140: b72d 373e bc52 09bc d52d 653e aab2 8f3d
00000150: aa92 32bc 5be4 b4be fcc6 6d3e 1633 12be
00000160: 6c09 5cbe d72e 103d 73d6 25be 2902 4fbe
00000170: b36c 85bd af05 863d 34de dd3e d523 1abd
00000180: b423 853c b6d1 0b3d 813d babd 921e 2ebd
00000190: 5eba e1bd 6f53 a53e 412c c5be 40bd 943e
000001a0: d9a9 933c f36b babe fa84 c8bd e4f4 10be
000001b0: de6e 37be 053b 37be 4793 a2bd 5738 02be
000001c0: 6677 e1bc 67d5 853e f8a3 f93e c56e 06be
000001d0: 32bf 24bd 94f4 5dbd ddef b03c 033f 853b
000001e0: a8bb 923c 9872 81bd 10a8 8c3e bc66 bc3e
000001f0: 2027 db3e 7a01 953c 654a 2bbe 43b3 d03e
00000200: 9171 c5be c3de 2f3e 3b13 6cbe 1311 943e
00000210: faf8 a3bd c302 953d 24e3 0a3e a06e 58be
00000220: 605a 4e3e f4d7 5abc 51a4 97be 098d 313c
00000230: 579f b43d d871 073e 3cf8 f63d 955d 5bbe
00000240: fe7e 0f3e 1c38 2b3e cf05 20bd 2ee2 dd3e
00000250: e191 133e b06f a2bd f4d2 fa3d cc4b 793c
00000260: c34b f13d c96b 41be 815b dbbd 7ebb efbd
00000270: 9454 9bbd 64aa 93bd 989e 3e3d f7e0 04bd
00000280: 34a0 263e 3137 63bd 4146 8f3d 8cff eb3e
00000290: 97bf 1dbe 84fb e3bd 7eef 853e 5a91 783e
000002a0: c8cc bd3e 9f28 19bd 5d63 d8bd be19 05bd
000002b0: 8d26 c1bb 057b 7bbe 3d8a 953c a2cb 47bd
000002c0: 98bf d8bd e6c2 99bd d573 7abd 6c0e 17be
000002d0: 95a1 88bd b078 c4bd 3118 edbb 1f25 d7be
000002e0: 3cf2 e6bd aa9a 6bbe 2bc0 68be 9737 963e
000002f0: 2db5 b3be 9905 9d3b b6b6 243b a2df 82bd
00000300: f34a 64be fbb0 99be 265b 92be cf75 5abd
00000310: 1dfa 39bd 445f 81bc 4ee9 6b3e 2ad3 423d
00000320: 9034 bebd 4c9d 203e 6e9e bd3a ae43 7bbc
00000330: 66ad 4cbe 8db0 0d3d 1205 ca3d 4832 05be
00000340: d68b 7f3d 14f7 6bbc 38db 37be bb3e 423e
00000350: f62d b63c 2e86 b1bd af4a cdbe f71e c43d
00000360: 91b3 04be 9f49 6dbc 8105 733d d54a 9b3e
00000370: c9a2 943d 2937 e4bd cf59 e13e d390 8ebe
00000380: 84bc c13c b065 c8bd 90ca 4ebd 9b2b 78be
00000390: 642e ecbd 0aa9 9e3d cfe5 c23d 85d8 9cbe
000003a0: e31d 59be b398 a53e 8519 d9bd 12d0 8bbd
000003b0: 3733 223e 50b3 0d3e 767c 93be 54af 7c3e
000003c0: fdc0 6bbe b651 a5be 337b 4aba d5d8 2ebe
000003d0: 67ec 73be bd82 6f3e 2177 1d3c 597f 0f3e
000003e0: df7b d73d af98 e93c 9921 f13e 3da2 9dbb
000003f0: ede0 7f3d b9a1 af3d f032 0cbf cfe4 3d3e

base.mlp.fc2.0.0.bias f4 [64]
0.017355993 -0.012200171 -0.06278201 0.010548913 -0.013852811 -0.0070799566 0.056068566 0.030681854
-0.068561405 -0.0032501642 -0.045872033 -0.048542127 0.12566063 0.0025522625 0.017414628 0.104913935
0.032848753 -0.04689212 -0.016131798 0.0044426857 0.0705931 0.059602257 -0.051060833 -0.08325064
0.03043569 0.029306047 -0.060946476 -0.06995571 -0.030942718 0.014604515 -0.038850434 -0.009275458
-0.040633958 0.0034814163 -0.041431356 -0.012420553 0.07722861 0.023754407 0.047377944 0.052266996
0.0092897555 0.013041639 0.054471493 -0.037936933 -0.118280746 0.028895553 -0.035531778 -0.0745836
0.04548589 -0.0065126545 0.043776292 -0.061635423 0.035319064 -0.11929663 0.0007292909 -0.012116689
-0.013228677 -0.026870657 0.009491804 0.0019066676 0.0755011 -0.07376499 0.099030904 0.11215907
00000000: 282e 8e3c 3ae3 47bc db93 80bd 59d5 2c3c
00000010: e7f6 62bc fbfe e7bb 27a8 653d 8358 fb3c
00000020: ec69 8cbd b500 55bb 50e4 3bbd 1cd4 46bd
00000030: 2ead 003e dc43 273b 1fa9 8e3c 1edd d63d
00000040: 6a8c 063d f411 40bd d526 84bc f393 913b
00000050: 1d93 903d 7f21 743d 2a25 51bd 507f aabd
00000060: 4554 f93c 3c13 f03c 03a3 79bd f044 8fbd
00000070: 957b fdbc c747 6f3c a221 1fbd 17f8 17bc
00000080: cb6f 26bd 7928 643b edb3 29bd 937f 4bbc
00000090: 092a 9e3d 9a98 c23c 600f 423d eb15 563d
000000a0: 0f34 183c 99ac 553c 801d 5f3d c263 1bbd
000000b0: 2d3d f2bd 5eb6 ec3c c589 11bd 49bf 98bd
000000c0: 6a4f 3a3d 1b68 d5bb c54e 333d 6d75 7cbd
000000d0: b9aa 103d cb51 f4bd e22d 3f3a 1485 46bc
000000e0: 18bd 58bc da1f dcbc 8383 1b3c 26e9 f93a
000000f0: 52a0 9a3d 1912 97bd b7d0 ca3d a8b3 e53d

base.mlp.fc2.0.2.weight f4 [64]
0.94581354 1.1082203 0.86335284 0.92696023 0.88211024 1.0182126 0.8787349 0.9058763
0.76215863 0.9577159 0.8555112 0.8398851 1.0693414 1.037564 1.0479603 0.94253886
0.97643286 0.96313983 0.8032348 0.9410072 0.9803558 0.9736382 0.91640013 0.9167402
0.9740406 1.0136716 0.8801832 0.8888012 0.9202399 0.8879051 0.9292702 0.97389555
0.9164573 0.8010253 0.8971903 1.0064952 0.9241121 0.93474287 1.0024164 0.9299213
0.9877432 0.8760068 0.9852211 0.99791735 0.9795111 0.9114066 0.9079093 0.92250824
0.91267294 1.0777535 0.8068141 0.9840819 0.94569886 1.0389236 0.9155521 1.003064
1.006961 1.0713606 0.85481596 1.0114145 1.0822147 0.99092203 0.90487045 1.1074208
00000000: d620 723f 2ada 8d3f b104 5d3f 444d 6d3f
00000010: fad1 613f ca54 823f c5f4 603f 82e7 673f
00000020: d41c 433f df2c 753f c802 5b3f b602 573f
00000030: 2ee0 883f e6ce 843f 9023 863f 3a4a 713f
00000040: 81f7 793f 5590 763f cca0 4d3f d9e5 703f
00000050: 99f8 7a3f 5a40 793f 3399 6a3f 7caf 6a3f
00000060: ba5a 793f febf 813f b053 613f 7a88 633f
00000070: d894 6b3f c04d 633f a7e4 6d3f 3851 793f
00000080: f29c 6a3f fe0f 4d3f 43ae 653f d6d4 803f
00000090: 9c92 6c3f 4f4b 6f3f 2e4f 803f 530f 6e3f
000000a0: bddc 7c3f fb41 603f 7337 7c3f 8377 7f3f
000000b0: 3dc1 7a3f f151 693f be6c 683f 8029 6c3f
000000c0: efa4 693f d4f3 893f 5e8b 4e3f cbec 7b3f
000000d0: 5219 723f 73fb 843f 9f61 6a3f 6764 803f
000000e0: 19e4 803f 5822 893f 38d5 5a3f 0876 813f
000000f0: 0386 8a3f 11ad 7d3f 97a5 673f f7bf 8d3f

base.mlp.fc2.0.2.bias f4 [64]
-0.07205739 -0.012768767 0.06473156 0.0015291456 0.0044608237 0.01933774 0.054655526 0.032597367
0.104704686 0.052293863 0.1256613 0.14756723 0.003676833 -0.02464495 0.0043254057 -0.06074707
-0.008546942 0.022244334 0.12448753 0.02278011 0.022770997 -0.05767207 -0.014190369 0.026139062
0.03634804 0.06503056 0.071105726 0.05277129 0.06942279 0.026956163 0.09171611 -0.05766253
0.13120249 0.12858836 0.017450765 0.03370781 0.030212197 -0.058208484 -0.02385873 0.018611586
0.08167036 0.098565094 -0.052877232 -0.0033162385 0.09959328 0.12125379 -0.010344906 -0.04291612
0.006466075 -0.0412019 -0.003576411 0.11127562 0.0081747435 0.10729766 -0.004860998 -0.025248524
-0.02503489 0.023020733 0.13492042 -0.017122958 0.020239485 0.04574074 0.017107073 -0.010463895
00000000: d392 93bd 1734 51bc fb91 843d 9d6d c83a
00000010: 1a2c 923b 2e6a 9e3c 79de 5f3d d184 053d
00000020: 696f d63d 1732 563d 5bad 003e dd1b 173e
00000030: 05f7 703b 35e4 c9bc 22bc 8d3b ebd1 78bd
00000040: 7908 0cbc c039 b63c 51f3 fe3d 5a9d ba3c
00000050: 3e8a ba3c 8c39 6cbd b97e 68bc 9621 d63c
00000060: afe1 143d be2e 853d e19f 913d b526 583d
00000070: 892d 8e3d 2cd3 dc3c a8d5 bb3d 8c2f 6cbd
00000080: f259 063e abac 033e e8f4 8e3c 3311 0a3d
00000090: 927f f73c 056c 6ebd 6273 c3bc 5377 983c
000000a0: ca42 a73d 7fdc c93d cc95 58bd 4055 59bb
000000b0: 90f7 cb3d e853 f83d ae7d 29bc d0c8 2fbd
000000c0: 5ee1 d33b 53c3 28bd 3862 6abb 79e4 e33d
000000d0: 5cef 053c e0be db3d 0249 9fbb fed5 cebc
000000e0: f815 cdbc fa95 bc3c 9428 0a3e 7245 8cbc
000000f0: 47cd a53c a45a 3b3d 2224 8c3c c270 2bbc

act.action_out.linear.weight f4 [5, 64]
-0.055233557 0.102681145 0.00486337 0.031682026 -0.043015953 0.06648743 -0.02140397 0.053376816
0.0129767675 -0.062181655 -0.040551778 -0.039028037 -0.1120646 -0.041968245 0.028205868 0.09507972
0.039390355 -0.033634722 -0.016365847 -0.011202977 0.056361828 -0.028684642 -0.027779436 -0.022127995
-0.006325716 0.018031871 -0.014825066 -0.053543717 0.0066420115 0.052854728 -0.029045967 -0.08392612
-0.042949058 -0.019212482 0.011689704 0.068183705 -0.06724026 0.026759276 0.0046862382 -0.0441233
-0.034954056 -0.0326297 0.03545499 -0.075289264 -0.010985123 -0.012041776 -0.06449855 -0.008457021
-0.050125763 -0.13925605 0.06967891 0.012111519 -0.061013833 0.016709281 0.036341943 -0.072751425
-0.057885315 0.08444435 -0.005500529 0.022981383 0.102923475 -0.060984436 -0.088768944 -0.120802775
-0.033140674 -0.16647226 -0.0016683087 -0.015323159 0.074883156 -0.0071445648 -0.04584655 -0.009048935
-0.01064319 -0.040227126 -0.010345582 -0.016085016 -0.05282764 0.06338002 0.0797617 -0.023700267
-0.044579566 0.052269332 -0.00566641 0.0003252252 0.025057368 0.064368375 -0.056830224 -0.023209495
-0.0034405538 0.068548985 -0.07319965 0.0076902164 -0.021716805 -0.005892428 -0.030682033 0.041238394
0.010145258 -0.019718682 -0.02688006 0.04146841 0.018141339 -0.04760365 -0.011050991 -0.03348476
0.07856381 -0.07003136 0.0012954735 -0.016919304 0.04563248 -0.0077753873 0.075532645 -0.06555728
-0.0025043597 -0.03292368 0.0062522306 0.021448813 0.059811786 0.07605064 -0.062257342 0.055644054
0.01566558 -0.09029378 -0.03272134 -0.08923711 0.10350172 -0.036858495 0.006081915 -0.05366615
0.08086865 0.017821122 -0.021221101 -0.022480993 -0.004604525 0.038784977 -0.022510277 0.004819689
0.0055081686 0.0604193 -0.014676124 -0.0010777562 0.11535398 0.02822794 -0.049589477 -0.09083698
0.028631743 -0.07226755 0.042094346 0.09672513 -0.07631228 0.019388184 -0.009051232 -0.034551997
-0.052397568 -0.09699261 0.009327587 -0.012918389 0.12118992 0.024741298 -0.005945169 0.07959016
0.007789514 -0.008750996 -0.01744199 -0.05554955 0.064188205 0.06316193 0.11052305 0.05339301
-0.03951926 -0.015303978 -0.12755482 0.08496701 -0.043955278 0.0448996 -0.0038283872 0.0257763
-0.014568412 0.09120545 -0.07628207 -0.05138182 0.025557103 0.007043922 -0.06211412 0.08171192
0.0892446 -0.07637521 -0.0504009 0.19872163 -0.028557971 0.057397213 -0.019502835 0.10535279
0.081174605 -0.016758697 -0.065009184 -0.019220654 -0.042872097 0.013149991 0.08961783 -0.048796225
-0.019454502 0.09953753 0.05443967 0.049418062 0.12758218 -0.123233356 -0.13758223 0.04970773
-0.0828098 0.05024013 -0.00047951724 -0.09797664 -0.0024741367 -0.05585776 0.064779624 0.030428553
-0.050112817 0.039884537 0.020323087 0.009367105 -0.024335548 -0.0060978485 0.121609546 0.0108392965
0.033835854 0.03230976 0.031859454 0.03163823 -0.014793125 -0.043771062 -0.03233369 0.011421266
0.08238749 0.090848014 0.00543612 0.038476855 -0.031022497 0.02142493 -0.023020174 0.025494233
0.07762363 0.087471634 0.039294206 -0.028254969 -0.04580451 0.003238454 0.03397634 -0.015727472
-0.0008437656 -0.021708222 0.085453555 -0.017865296 -0.018942276 0.094290674 0.092411965 0.110503405
00000000: 953c 62bd 7e4a d23d e85c 9f3b 03c5 013d
00000010: 7f31 30bd 902a 883d 6157 afbc a6a1 5a3d
00000020: 829c 543c 31b2 7ebd 9f19 26bd dddb 1fbd
00000030: 2082 e5bd e5e6 2bbd fe0f e73c 28b9 c23d
00000040: c857 213d 90c4 09bd ab11 86bc b18c 37bc
00000050: a9db 663d 0efc eabc b391 e3bc c545 b5bc
00000060: f447 cfbb 93b7 933c d5e4 72bc a850 5bbd
00000070: 3ba5 d93b 337e 583d cff1 edbc 75e1 abbd
00000080: 5aeb 2fbd 7f63 9dbc 2c86 3f3c e6a3 8b3d
00000090: 43b5 89bd 4536 db3c 048f 993b a2ba 34bd
000000a0: fc2b 0fbd b8a6 05bd 4039 113d 4231 9abd
000000b0: f2fa 33bc df4a 45bc d117 84bd 518f 0abc
000000c0: ac50 4dbd 2399 0ebe d1b3 8e3d 656f 463c
000000d0: a4e9 79bd e7e1 883c 4adb 143d b3fe 94bd
000000e0: 2719 6dbd 29f1 ac3d c83d b4bb 7443 bc3c
000000f0: 8bc9 d23d d1ca 79bd 7ecc b5bd 7267 f7bd
00000100: 84be 07bd b477 2abe 27ab daba fd0d 7bbc
00000110: 575c 993d f41c eabb 98c9 3bbd fc41 14bc
00000120: c660 2ebc 33c5 24bd 8480 29bc b9c4 83bc
00000130: cc61 58bd 62cd 813d 1a5a a33d 1027 c2bc
00000140: 1099 36bd 5e18 563d 4bad b9bb fd82 aa39
00000150: 1c45 cd3c 91d3 833d cfc6 68bd d721 bebc
00000160: ea7a 61bb 6963 8c3d b3e9 95bd 36fe fb3b
00000170: 71e7 b1bc 4515 c1bb e358 fbbc 97e9 283d
00000180: 4c38 263c 1389 a1bc 9233 dcbc c8da 293d
00000190: 259d 943c 0bfc 42bd 370f 35bc 5127 09bd
000001a0: 10e6 a03d 9a6c 8fbd e1cc a93a 5a9a 8abc
000001b0: 20e9 3a3d adc8 febb dcb0 9a3d e542 86bd
000001c0: 2f20 24bb fbda 06bd 83df cc3b 6cb5 af3c
000001d0: 34fd 743d 70c0 9b3d 8e01 7fbd 05eb 633d
000001e0: 1a55 803c f2eb b8bd d006 06bd f2c1 b6bd
000001f0: b6f8 d33d eff8 16bd cd4a c73b 09d1 5bbd
00000200: 769e a53d 9afd 913c e0d7 adbc 0f2a b8bc
00000210: 8ee1 96bb ffdc 1e3d 7967 b8bc 7bee 9d3b
00000220: de7d b43b 3a7a 773d 2074 70bc 7f43 8dba
00000230: b53e ec3d 483e e73c 561e 4bbd bd08 babd
00000240: 1e8d ea3c 0201 94bd 1f6b 2c3d d317 c63d
00000250: 9d49 9cbd f8d3 9e3c 9e4b 14bc 6586 0dbd
00000260: d59e 56bd 10a4 c6bd bcd2 183c a7a7 53bc
00000270: 6c32 f83d 43ae ca3c b1cf c2bb 2a00 a33d
00000280: 2e3f ff3b 5660 0fbc 81e2 8ebc ed87 63bd
00000290: 1b75 833d 0b5b 813d e959 e23d a1b2 5a3d
000002a0: f3de 21bd 89bd 7abc bb9d 02be 2f03 ae3d
000002b0: 730a 34bd a5e8 373d aee5 7abb d228 d33c
000002c0: 59b0 6ebc ecc9 ba3d c639 9cbd be75 52bd
000002d0: 215d d13c b3d0 e63b 606b 7ebd 9458 a73d
000002e0: dfc5 b63d 9b6a 9cbd 2d71 4ebd af7d 4b3e
000002f0: 68f2 e9bc 5719 6b3d 69c4 9fbc 34c3 d73d
00000300: df3e a63d 8949 89bc 8923 85bd a274 9dbc
00000310: a79a 2fbd 0f73 573c 8e89 b73d 8dde 47bd
00000320: 0c5f 9fbc 55da cb3d 22fc 5e3d 986a 4a3d
00000330: e7a4 023e c561 fcbd 5be2 0cbe 559a 4b3d
00000340: 2f98 a9bd 98c8 4d3d b767 fbb9 faa7 c8bd
00000350: 2025 22bb 1bcb 64bd 2eab 843d 4d45 f93c
00000360: 1943 4dbd f85d 233d 9a7c a63c 7c78 193c
00000370: 585b c7bc 76d0 c7bb 6d0e f93d 4e97 313c
00000380: 7797 0a3d 3d57 043d 0f7f 023d 1797 013d
00000390: dd5e 72bc 4949 33bd 5570 04bd 4320 3b3c
000003a0: c6ba a83d 860e ba3d 7b21 b23b e899 1d3d
000003b0: e422 febc 5683 af3c ce94 bcbc 48d9 d03c
000003c0: 23f9 9e3d 5424 b33d f6f2 203d f776 e7bc
000003d0: 839d 3bbd 3e3c 543b c62a 0b3d e6d6 80bc
000003e0: 2730 5dba 71d5 b1bc 4602 af3d 3e5a 92bc
000003f0: d52c 9bbc 781b c13d 7c42 bd3d 9c4f e23d

act.action_out.linear.bias f4 [5]
0.051910855 0.039696068 0.00023528705 -0.07343307 0.00090285414
00000000: 7aa0 543d 5898 223d 63b7 7639 1464 96bd
00000010: 84ad 6c3a
