light_mappo/results/HighwayEnv/MyEnv/mappo/check/run2/models/critic.pt (torch, 53981 bytes, 15 tensors)

base.feature_norm.weight f4 [50]
0	0x3f7a020d	0.9765938
1	0x3f7965d0	0.9742098
2	0x3f7c0638	0.9844699
3	0x3faeea9e	1.366535
4	0x3f73bbf8	0.9520869
5	0x3f72a9fa	0.94790614
6	0x3f818923	1.0119976
7	0x3f7a07d5	0.976682
8	0x3f7a10db	0.9768197
9	0x3f7f85d2	0.9981357
10	0x3f656af9	0.8961635
11	0x3f8db9bf	1.107231
12	0x3f542ac2	0.82877743
13	0x3f6d8ef7	0.9279627
14	0x3f8049ca	1.0022519
15	0x3f704dec	0.938689
16	0x3fac9475	1.3482805
17	0x3f742448	0.9536786
18	0x3f7585d6	0.9590734
19	0x3f6d2da2	0.92647755
20	0x3f7cd8f5	0.9876855
21	0x3f93d4cd	1.1549317
22	0x3f56c4cd	0.83894044
23	0x3f84abad	1.0364891
24	0x3f7487a2	0.9551946
25	0x3f6938f5	0.91102535
26	0x3f656622	0.8960897
27	0x3f6797a1	0.9046574
28	0x3f93e783	1.1555027
29	0x3f70fa7d	0.94132215
30	0x3f77e316	0.9683088
31	0x3f86f59d	1.0543705
32	0x3f657d11	0.8964396
33	0x3f7d21ed	0.9887989
34	0x3f80c280	1.0059357
35	0x3f6b555f	0.9192714
36	0x3f966c68	1.1751833
37	0x3f4fe637	0.81210655
38	0x3f81ecff	1.015045
39	0x3f62866a	0.8848635
40	0x3f773432	0.9656402
41	0x3fc05467	1.5025758
42	0x3f469dd0	0.7758455
43	0x3f83d964	1.0300717
44	0x3f7ffda2	0.9999639
45	0x3f86bab2	1.0525725
46	0x3fb1d12d	1.389196
47	0x3f735b44	0.95061135
48	0x3f8e7454	1.112925
49	0x3f792a34	0.9733002

base.feature_norm.bias f4 [50]
0	0xbce29934	-0.027660944
1	0xbd022828	-0.031776577
2	0xbc8bf0eb	-0.017082652
3	0xbbe90a58	-0.007111829
4	0x3d4a01ad	0.049318004
5	0xbd7c43a6	-0.061587952
6	0xbcee5c1c	-0.029096656
7	0x3d6ebe65	0.058287043
8	0x3d1ba873	0.038002443
9	0xbb869807	-0.0041074785
10	0xbde8c3b7	-0.11365455
11	0x3d6d9431	0.058002654
12	0x3cb57d4d	0.022154475
13	0x3daea3dd	0.08527348
14	0x3c130d11	0.008975283
15	0xbd82185c	-0.063523024
16	0x3ce2fb13	0.027707612
17	0x3d2fd8b5	0.042931277
18	0x3da2027f	0.07910632
19	0x3d76b831	0.060234252
20	0xbba4cd0b	-0.005029326
21	0x3ca3fd9c	0.020018391
22	0x3cc98a11	0.024601968
23	0x3ce787b0	0.028262943
24	0x3d5df1ff	0.054185864
25	0xbdb1f5d7	-0.08689468
26	0xbdd0c524	-0.101938516
27	0xbcbafa66	-0.022824477
28	0x3c16d62a	0.009206334
29	0x3d9be224	0.07611492
30	0xbcf2b8d5	-0.02962915
31	0x3c445bb0	0.011984751
32	0x3c3fd74e	0.0117090475
33	0x3c678d29	0.014132776
34	0x3b84c683	0.0040519848
35	0xbd9512d7	-0.07278984
36	0x3c4342e2	0.011917802
37	0x3cf59fd4	0.029983439
38	0x3bda7c0e	0.0066676205
39	0x3df7a19d	0.12091372
40	0xbd94b4c7	-0.07261043
41	0xbbd027d0	-0.0063524023
42	0x3d040e49	0.032240186
43	0x3d5a1a4b	0.05324773
44	0xba679bef	-0.00088351866
45	0xbace5919	-0.0015743106
46	0xbc1d45f7	-0.0095992
47	0x3cfe9c0d	0.03108027
48	0x3b8e41ef	0.004341356
49	0x3cb399f8	0.021924004

base.mlp.fc1.0.weight f4 [64, 50]
0	0xbd645f95	-0.055755217
1	0x3d29c013	0.041442942
2	0x3d9fb31d	0.07797835
3	0x3ebb7941	0.36615947
4	0xbdb6572b	-0.08903345
5	0x3ecd90e0	0.40149593
6	0x3e37e227	0.17957364
7	0x3d3644fb	0.04449938
8	0x3e1a8744	0.15090662
9	0xbcd26879	-0.025684582
10	0x3d848b8b	0.06471928
11	0xbeb23ee6	-0.34813613
12	0xbdd5792f	-0.104235046
13	0xbe810dad	-0.25205746
14	0x3e62315c	0.22089142
15	0x3e05e512	0.13075665
16	0x3e75500c	0.23956317
17	0x3dd2d134	0.102938086
18	0x3ca36fb4	0.019950725
19	0xbe6af0e3	-0.22943453
20	0x3d843085	0.06454567
21	0x3d6e19e7	0.05813017
22	0xbec5f1db	-0.38661084
23	0xbe9b51ea	-0.30335933
24	0x3f1bcc23	0.6085836
25	0xbc386e38	-0.011256747
26	0xbe469c70	-0.19395614
27	0xbe891fea	-0.2678216
28	0xbce3e2d1	-0.027818115
29	0xbc01d015	-0.007923146
30	0xbdc0f36f	-0.09421431
31	0x3c409679	0.0117546255
32	0xbca0ebe4	-0.019643731
33	0x3d5b9cd9	0.05361638
34	0xbd8a0ad0	-0.067403436
35	0xbd0e9018	-0.034805387
36	0x3dbe4737	0.09290927
37	0xbea3d50c	-0.3199848
38	0xbe8d2c5e	-0.27572912
39	0xbc940e7b	-0.018073311
40	0xbe326580	-0.17421532
41	0xbea62e5f	-0.32457253
42	0xbe0d0adf	-0.13773678
43	0xbc5db09b	-0.013530876
44	0x3d29bb2b	0.041438263
45	0x3d86f697	0.06590002
46	0x3aa6b434	0.00127185
47	0x3c75e065	0.015007113
48	0xbc5d3e8b	-0.013503681
49	0x3ddc70ce	0.10763703
50	0x3da09bf5	0.078422464
51	0x3dc940f7	0.09826844
52	0xbe2a5646	-0.16634473
53	0xbd8ffe8c	-0.07030973
54	0x3e017354	0.1264165
55	0xbe6d7568	-0.23189318
56	0x3e94704f	0.28991935
57	0xbe70508e	-0.23468229
58	0x3ca60657	0.020266695
59	0x3e94d5e4	0.29069436
60	0x3d911538	0.07084125
61	0x3cbbdb76	0.022931796
62	0xbe824c58	-0.2544887
63	0x3da1a832	0.07893409
64	0x3d15d461	0.036579493
65	0xbe5258c7	-0.20541678
66	0x3e10a63e	0.14125916
67	0x3e185e96	0.14879832
68	0x3ead905a	0.33899194
69	0x3e1c2343	0.15247826
70	0x3d57d995	0.052697737
71	0x3d7fdffd	0.06246947
72	0x3e004e2a	0.12529817
73	0xbe1243bd	-0.14283653
74	0x3e671b6e	0.22569057
75	0x3e204679	0.15651883
76	0xbe82d390	-0.25552034
77	0xbdc52f1e	-0.096281275
78	0xbda2b5d8	-0.0794484
79	0x3dd6488d	0.10463057
80	0xbe8e1895	-0.2775313
81	0xbdec5018	-0.11538714
82	0xbde69fe3	-0.11260965
83	0xbd9e4b2b	-0.07729181
84	0x3e0f07af	0.13967775
85	0xbd58853b	-0.052861433
86	0x3e33eedc	0.17571586
87	0x3ccdf978	0.02514337
88	0xbd946293	-0.07245364
89	0x3d3f4839	0.046699736
90	0x3e254b93	0.1614211
91	0xbde09c63	-0.109673284
92	0xbe055997	-0.13022457
93	0x3d4fa699	0.05069599
94	0x3e8064c3	0.25076875
95	0xbebb4a57	-0.36580154
96	0xbd6318e3	-0.055443656
97	0xbe033ba6	-0.12815723
98	0x3d7be08c	0.06149344
99	0x3db1a0d8	0.08673257
100	0xbd2c3da5	-0.042050976
101	0xbd8e48c0	-0.0694747
102	0xbeab8485	-0.33499542
103	0x3eb40445	0.35159507
104	0x3d5eaec0	0.054365873
105	0x3e604cea	0.2190434
106	0xbe5dacff	-0.21648024
107	0xbeac73f1	-0.33682206
108	0xbdcf64f7	-0.101266794
109	0x3e75c054	0.23999149
110	0xbd0dc606	-0.034612678
111	0x3d03f6e6	0.032217883
112	0xbd8f158d	-0.06986532
113	0x3b341e8d	0.002748403
114	0xbdaaec59	-0.08345861
115	0xbc14ef9c	-0.00909033
116	0x3eb3622b	0.35035834
117	0x3ca7ac3f	0.020467876
118	0x3e0c7489	0.1371633
119	0x3c4ba501	0.012429477
120	0x3e555ce9	0.20836224
121	0x3ddebfd7	0.10876434
122	0x3eb934a8	0.36172986
123	0xbe29e518	-0.16591299
124	0x3dbb775d	0.09153626
125	0xbe5b1652	-0.21395233
126	0x3dac2ff0	0.08407581
127	0xbe4b720b	-0.19867723
128	0x3e1447ec	0.14480561
129	0x3ddc760e	0.10764705
130	0x3e1439cf	0.14475177
131	0x3d02c6e5	0.03192796
132	0x3c6fec3f	0.014643728
133	0xbe085bff	-0.13316344
134	0xbe2ee689	-0.1708013
135	0x3d3ba1fe	0.045808785
136	0xbe94e00c	-0.29077184
137	0x3c4b3c45	0.012404506
138	0xbdf42f6b	-0.11923107
139	0xbe3e2d60	-0.18571997
140	0x3e1b2060	0.15149069
141	0x3ee01cdc	0.43772018
142	0x3e882bb0	0.2659583
143	0xbd6ddb79	-0.058070634
144	0xbe23cce9	-0.15996136
145	0xbdfcd7c5	-0.12345842
146	0x3ebd4197	0.36964104
147	0xbcacd549	-0.021097796
148	0x3ebe7b11	0.37203267
149	0x3e6693f2	0.22517374
150	0xbe22f402	-0.15913394
151	0x3c886a33	0.016652202
152	0xbdfb2ebf	-0.122647755
153	0xbde5aa6f	-0.11214148
154	0xbe03a22c	-0.12854832
155	0x3e7f8585	0.24953277
156	0x3de5f2be	0.1122794
157	0xbdc39d6f	-0.095515124
158	0x3d3f79f0	0.046747148
159	0xbd30e671	-0.043188516
160	0xbe14a56c	-0.14516228
161	0xbd61e7e3	-0.055152785
162	0xbdb1be5c	-0.08678886
163	0x3e0e30d2	0.13885811
164	0xbc599b28	-0.013281621
165	0xbe01f91c	-0.12692684
166	0x3daaa791	0.08332742
167	0xbeb95aeb	-0.36202177
168	0xbe089854	-0.13339359
169	0xbdd8318b	-0.105563246
170	0xbe220ca8	-0.1582514
171	0x3dd56f9b	0.10421678
172	0x3e619af0	0.2203176
173	0x3e92c2e5	0.28664318
174	0x3ea71c19	0.32638624
175	0x3e036a97	0.1283363
176	0x3d0b4936	0.034005366
177	0x3e7b1927	0.24521314
178	0x3e7ab77c	0.24484056
179	0x3e1496cd	0.14510651
180	0x3e0d5ebb	0.13805668
181	0x3e4cf669	0.20015873
182	0xbe4adf86	-0.1981183
183	0x3dd988b5	0.10621778
184	0x3c108ce4	0.008822653
185	0xbea606bd	-0.32427016
186	0x3c249826	0.010046041
187	0x3dc979bd	0.09837673
188	0xbcd5bbb7	-0.026090486
189	0xbe1c22a9	-0.15247597
190	0xbdf650d2	-0.12027134
191	0x3af505a2	0.0018693695
192	0xbd7c719a	-0.061631776
193	0x3d62c81f	0.05536663
194	0x3e986e9b	0.29771885
195	0xbede56fd	-0.43425742
196	0xbebfa343	-0.37429246
197	0x3e0ba43a	0.13636866
198	0xbe90b2a5	-0.28261295
199	0xbe048c97	-0.12944256
200	0x3d6f89e4	0.058481112
201	0x3cbab2c2	0.022790316
202	0xbda7c00f	-0.08190929
203	0xbeb57b04	-0.35445416
204	0xbc16d44a	-0.009205887
205	0xbdadcf82	-0.084868446
206	0x3e68c070	0.22729659
207	0x3e6341a6	0.22193012
208	0xbe88c93f	-0.2671604
209	0x3ec64a49	0.3872855
210	0xbe01496e	-0.12625667
211	0x3cf538ef	0.029934375
212	0xb938bff4	-0.00017619116
213	0xbe7f34a0	-0.24922419
214	0xbe9be226	-0.30445975
215	0xbe2b58d1	-0.167331
216	0xbe3743e1	-0.17896987
217	0x3da43796	0.08018415
218	0x3d5c95d1	0.053853814
219	0xbe16b9b0	-0.14719272
220	0xbe22e0e6	-0.15906104
221	0x3d317e75	0.04333349
222	0x3d8e95e1	0.06962181
223	0x3d60f7f5	0.05492397
224	0x3e983e4a	0.29735023
225	0xbe08e03f	-0.13366793
226	0x3e4ed177	0.20197092
227	0xbe7407cb	-0.23831098
228	0xbe2afa6c	-0.16697091
229	0x3d2179fe	0.03942298
230	0x3d9d7e3a	0.076900914
231	0xbbb62e68	-0.0055597313
232	0x3eb70b3c	0.3575076
233	0xbcf58ea8	-0.02997525
234	0x3e89b53b	0.2689608
235	0xbf0f1872	-0.55896676
236	0xbe050ba3	-0.1299272
237	0x3e782b91	0.2423537
238	0xbe8ee31d	-0.2790765
239	0xbe3f3348	-0.18671906
240	0x3d37b556	0.04485067
241	0x3da2003c	0.07910201
242	0x3daeb6d3	0.08530965
243	0xbe0c7a9c	-0.13718647
244	0xbdd4bf9a	-0.103881076
245	0x3e716b0b	0.2357599
246	0x3de55199	0.11197204
247	0x3dd9a87b	0.10627838
248	0xbe90d577	-0.2828786
249	0x3d9f7aa7	0.07787066
250	0x3b639898	0.0034728404
251	0x3d477b66	0.048701666
252	0x3e93fae2	0.28902346
253	0xbdd54553	-0.10413613
254	0x3ea45e8d	0.32103387
255	0x3e30cbc5	0.17265232

base.mlp.fc1.0.bias f4 [64]
0	0x3c6cfc47	0.0144644445
1	0xbcfe1d33	-0.031019783
2	0x3c26dbe9	0.010184267
3	0xbd5ddd59	-0.05416617
4	0x3c113849	0.008863517
5	0xbc5ef5b8	-0.013608389
6	0x3d0a4d80	0.033765316
7	0xbd04cf40	-0.03242421
8	0x3d1896ea	0.037253298
9	0x00000000	0.0
10	0x3b33e146	0.0027447506
11	0x3cb1b6ef	0.021693675
12	0xbc88dd18	-0.016706988
13	0xbcfc5aa1	-0.030804934
14	0xbd4f7d69	-0.05065671
15	0xbd0610fa	-0.032731034
16	0xba1d6cb4	-0.0006005273
17	0xbcff6a03	-0.03117848
18	0x3d16cb53	0.036815
19	0x3d55312b	0.052048843
20	0xbd139583	-0.036031257
21	0xbd6306dc	-0.055426463
22	0xbc97a52c	-0.018511377
23	0x3d86613b	0.06561514
24	0xbce9a367	-0.0285203
25	0x3c353f9c	0.011062529
26	0xbd120841	-0.035652403
27	0x00000000	0.0
28	0xbd0144c6	-0.031559728
29	0x3d8ab5e4	0.06772974
30	0x00000000	0.0
31	0xbcb424b6	-0.021990161
32	0xbc918dc1	-0.017767789
33	0xbb933aa5	-0.004493075
34	0xb9dddb6f	-0.00042315896
35	0xbc51fa9f	-0.0128161
36	0xbbaf5e79	-0.005351838
37	0xbce00708	-0.027347103
38	0x3d3af976	0.04564806
39	0xbce2a558	-0.027666733
40	0x3ad50af5	0.0016253876
41	0x00000000	0.0
42	0x3ca072b5	0.019585947
43	0x3ce57472	0.028009627
44	0x3cb13f8d	0.021636749
45	0xbc1e0059	-0.009643638
46	0x3d06a447	0.03287151
47	0xb9c02d28	-0.00036654738
48	0xbccf8f67	-0.025336934
49	0x3ca2568f	0.019816665
50	0xbcdcea5c	-0.02696722
51	0xbc428ab5	-0.011873891
52	0x3bd10690	0.006378956
53	0xbcba8144	-0.022766717
54	0x3d8481c4	0.06470063
55	0xbd5acc6e	-0.053417616
56	0xbc290355	-0.010315736
57	0xbd336809	-0.043800388
58	0x3cb4109d	0.021980578
59	0x00000000	0.0
60	0xbcba80be	-0.022766467
61	0xbc9808a3	-0.018558806
62	0xbbfa34cf	-0.00763569
63	0x3d25c21d	0.040468324

base.mlp.fc1.2.weight f4 [64]
0	0x3f5b5e3d	0.8569067
1	0x3f7dcb09	0.9913793
2	0x3f76cdad	0.96407586
3	0x3f7da932	0.99086297
4	0x3f74a670	0.95566463
5	0x3f766e7a	0.96262324
6	0x3f7aeaf0	0.98014736
7	0x3f6f1119	0.93385464
8	0x3f6c2552	0.92244446
9	0x3f80b4b1	1.0055143
10	0x3f7fe1c3	0.9995386
11	0x3f7f7d3b	0.9980046
12	0x3f7c25d0	0.984952
13	0x3f71aa9e	0.94400966
14	0x3f63d5b4	0.8899796
15	0x3f7411c7	0.95339626
16	0x3f803988	1.0017557
17	0x3f78ef98	0.9724059
18	0x3f86113a	1.0474007
19	0x3f8a34be	1.0797346
20	0x3f752f72	0.9577552
21	0x3f726460	0.9468441
22	0x3f82fb43	1.0232929
23	0x3f752540	0.95759964
24	0x3f8069aa	1.0032246
25	0x3f7bb2f2	0.98319924
26	0x3f751cf0	0.9574728
27	0x3f85a60e	1.0441301
28	0x3f81e964	1.014935
29	0x3f798e55	0.97482806
30	0x3f7613d1	0.9612399
31	0x3f74e549	0.9566236
32	0x3f85ab3b	1.044288
33	0x3f936ecb	1.1518186
34	0x3f76233f	0.9614753
35	0x3f80941a	1.0045197
36	0x3f86abc9	1.0521175
37	0x3f789bc2	0.9711267
38	0x3f803c46	1.0018394
39	0x3f800b1f	1.0003394
40	0x3f8675c4	1.0504689
41	0x3f828420	1.0196571
42	0x3f85a54e	1.0441072
43	0x3f90cae7	1.1311921
44	0x3f8af806	1.0856941
45	0x3f760a70	0.96109676
46	0x3f88b217	1.0679349
47	0x3f87f28b	1.0620893
48	0x3f7838b0	0.969615
49	0x3f967a02	1.1755984
50	0x3f7c8e63	0.98654765
51	0x3f80345a	1.0015976
52	0x3f8d99ba	1.1062539
53	0x3f72b8a5	0.94812995
54	0x3f84181b	1.0319856
55	0x3f74299d	0.95375997
56	0x3f77451b	0.9658982
57	0x3f5d294c	0.8639114
58	0x3f79e9cf	0.9762239
59	0x3f80827e	1.0039823
60	0x3f6c7b0b	0.9237525
61	0x3f7a2e0b	0.97726506
62	0x3f7a0416	0.97662485
63	0x3f789173	0.9709694

base.mlp.fc1.2.bias f4 [64]
0	0x3c4efe4d	0.012633872
1	0x3c0fe350	0.008782223
2	0x3ad685e7	0.001636681
3	0x3c098ea1	0.008395822
4	0x3c3a0c3a	0.011355454
5	0x3c9ba83a	0.019001115
6	0x3c8d2cf1	0.017233344
7	0x3a3ec68b	0.000727751
8	0x3d8cf44c	0.068825334
9	0xbc027238	-0.007961802
10	0x3b94993c	0.0045348685
11	0x3d37f6b7	0.04491302
12	0xbcb95c9c	-0.022627167
13	0x3c967033	0.018364048
14	0x3daa4079	0.083130784
15	0x3c773e14	0.015090484
16	0xbcf36d3c	-0.029715173
17	0xbb3bcdc9	-0.0028656593
18	0x3b31afa4	0.0027112747
19	0x3c622e6d	0.013805014
20	0x3bf29ead	0.0074041695
21	0x3b66be29	0.003520856
22	0xbcc5f8af	-0.024166433
23	0xbc6afdf3	-0.014342773
24	0xbc102a2a	-0.008799115
25	0x3ce9c79e	0.028537568
26	0x3d0e0317	0.034670915
27	0xbd57af97	-0.05265769
28	0xbc8ed146	-0.017433774
29	0x3cedc714	0.029025592
30	0x3cedd358	0.02903144
31	0x3c5a9c0e	0.01334287
32	0x3cad909f	0.021187125
33	0xbd12e930	-0.035866916
34	0x3d03574e	0.032065682
35	0x3a8c40b6	0.0010700438
36	0xbc94d172	-0.018166278
37	0xbbbd7230	-0.0057814345
38	0x3d01bb43	0.031672727
39	0xbc382673	-0.011239636
40	0x3c8271a9	0.015923338
41	0xbc299f0c	-0.010352861
42	0x3c6890a3	0.01419464
43	0x3c9a58bf	0.018841146
44	0xbd6dd56f	-0.058064874
45	0x3c149c99	0.009070539
46	0x3d803765	0.06260566
47	0xbb24830e	-0.0025102529
48	0x3bc4ac6f	0.006002001
49	0xbc9732bf	-0.018456815
50	0xbd3525b6	-0.044225417
51	0xbc88fc11	-0.016721757
52	0x3c5642c5	0.0130774425
53	0x3d8c2897	0.068436794
54	0x3b4bd79e	0.003110386
55	0x3d0aa2d6	0.0338467
56	0xbba3e76b	-0.0050019524
57	0x3daf22dd	0.085515715
58	0x3cbc7804	0.023006447
59	0xbc950076	-0.018188696
60	0xbc51beb1	-0.012801812
61	0x3bfcc7c3	0.007714243
62	0xbcd30f47	-0.02576412
63	0x3c112218	0.008858226

base.mlp.fc_h.0.weight f4 [64, 64]
0	0xbcea9037	-0.02863322
1	0x3bde8ba6	0.0067915497
2	0xbe11b66a	-0.14229742
3	0xbde590e0	-0.11209273
4	0xbed1ed86	-0.41001529
5	0x3e0c8242	0.13721564
6	0x3e3f82d7	0.18702255
7	0x3e5d15ea	0.21590391
8	0xbe7f8926	-0.24954662
9	0x3ed41066	0.4141876
10	0x3e273aef	0.16331075
11	0x3e10c7e5	0.14138754
12	0xbc0bced4	-0.008533198
13	0x3d17a558	0.03702292
14	0x3e73063d	0.23732848
15	0x3d6abbf2	0.057308145
16	0x3e2af6f1	0.16695763
17	0xbe89e18a	-0.26929885
18	0xbe674a01	-0.22586824
19	0x3e8a9700	0.2706833
20	0x3d874dba	0.06606622
21	0xbe6a9164	-0.22907025
22	0xbdf14345	-0.11780409
23	0x3e08a141	0.13342763
24	0x3d340522	0.043950208
25	0x3e7d6c51	0.2474835
26	0xbc838a72	-0.016057227
27	0xbd9261f3	-0.071475886
28	0x3d9d2c9e	0.07674526
29	0x3da13bb3	0.07872715
30	0x3e14b8a2	0.14523557
31	0xbe99acca	-0.3001464
32	0x3d9a030b	0.07520112
33	0xbe13d554	-0.14436847
34	0x3d154498	0.03644237
35	0xbe7ca1ef	-0.24671148
36	0x3d424b45	0.047435064
37	0xbd63e753	-0.05564053
38	0xbd66cf09	-0.056349788
39	0xbe9774dc	-0.29581344
40	0x3e55d5ee	0.20882389
41	0x3dc67101	0.096895225
42	0x3d494b68	0.04914418
43	0xbd870888	-0.06593424
44	0x3cf147f3	0.029453253
45	0xbc5d40f8	-0.013504259
46	0xbdfb2a20	-0.12263894
47	0x3e3cbcb3	0.18431358
48	0xbe9dc2ae	-0.3081259
49	0x3e50f5f4	0.20406324
50	0x3e151f8f	0.1456282
51	0xbe590f36	-0.21197209
52	0xbd5d21f1	-0.053987447
53	0xbe1a477a	-0.15066329
54	0x3e61f147	0.22064696
55	0xbe3c8d97	-0.18413387
56	0x3d21d69d	0.03951131
57	0xbdc85000	-0.09780884
58	0x3e3c3174	0.1837824
59	0x3da9fe11	0.083004124
60	0x3e2813e4	0.16413838
61	0xbe8d4fa6	-0.2759983
62	0x3e4a6760	0.19765997
63	0xbe690785	-0.22756775
64	0x3c9a5502	0.018839363
65	0x3f10b6ea	0.56529105
66	0xbd379344	-0.044818178
67	0x3e3778b6	0.17917141
68	0xbe48c312	-0.19605663
69	0xbdc592eb	-0.09647163
70	0xbd908e63	-0.07058408
71	0xbc81e153	-0.015854513
72	0x3eb4c495	0.3530623
73	0xbd5bf3f6	-0.053699456
74	0x3d7c52ba	0.06160233
75	0xbdda7750	-0.10667288
76	0xbdc22e61	-0.09481502
77	0x3e38556f	0.1800134
78	0x3e255cbc	0.16148657
79	0x3dd777e0	0.10520911
80	0xbcd13c4f	-0.025541453
81	0x3e9c6480	0.30545425
82	0xbd1405ac	-0.03613822
83	0x3e81d008	0.25354028
84	0x3e5c4345	0.21510036
85	0x3e5e86d7	0.21731125
86	0xbcb1d336	-0.021707159
87	0x3d196e61	0.03745878
88	0xbd2ab396	-0.041675173
89	0x3da52c18	0.08065051
90	0xbdea8836	-0.114517614
91	0x3e20cd81	0.15703394
92	0xbece5073	-0.40295753
93	0x3d42b42b	0.047535103
94	0x3d27f128	0.04100147
95	0xbe8526e7	-0.26006243
96	0xbea72290	-0.32643557
97	0xbd494f4e	-0.049147896
98	0x3e74c1b0	0.23902011
99	0x3e21a10f	0.15784095
100	0x3d7bbe9d	0.06146108
101	0xbcc5539a	-0.024087716
102	0xbc96e397	-0.01841907
103	0xbe0e96f3	-0.1392477
104	0xbe226e4b	-0.15862386
105	0x3e109458	0.14119089
106	0xbec488da	-0.3838566
107	0x3dcdfd28	0.10058051
108	0x3e62ed61	0.22160865
109	0xbdbf3b95	-0.09337536
110	0x3ec48e81	0.38389972
111	0x3d4665ba	0.048436858
112	0xbd13d579	-0.036092255
113	0x3d741bcc	0.05959682
114	0xbdab39ad	-0.0836061
115	0xbe28fe6b	-0.16503303
116	0xbcaf5acc	-0.0214056
117	0xbdca2867	-0.098709874
118	0xbdd59a46	-0.10429816
119	0xbe187217	-0.14887272
120	0xbcd85297	-0.02640657
121	0xbe69ee7e	-0.22844884
122	0xbc59df6d	-0.013297898
123	0x3e7051fc	0.23468775
124	0xbc69f486	-0.01427949
125	0xbcd8f19e	-0.0264824
126	0xbe089d18	-0.13341177
127	0x3d4c476e	0.04987281
128	0x3c873fb3	0.016509866
129	0x3c9e62eb	0.019334277
130	0x3d96782c	0.0734714
131	0xbdaf503e	-0.08560227
132	0xbd816133	-0.063173674
133	0xbd4bebee	-0.049785547
134	0x3d7cb345	0.061694402
135	0xbd84dc22	-0.064872995
136	0xbe326a13	-0.17423277
137	0x3ec1df0d	0.37865487
138	0xbd3b8579	-0.045781586
139	0x3b31da8a	0.0027138316
140	0x3e0f896a	0.14017263
141	0x3d958966	0.07301597
142	0x3c957022	0.018241946
143	0xbde2445e	-0.11048196
144	0xbd9e2668	-0.07722169
145	0xbe28a4fb	-0.16469185
146	0xbcdf3a27	-0.027249409
147	0xbe3304d0	-0.17482305
148	0x3d930fcf	0.071807496
149	0xbd0f63dd	-0.035007346
150	0xbdb315b8	-0.08744377
151	0xbcbe1222	-0.023202006
152	0x3d70503d	0.05867027
153	0xbe7af178	-0.24506176
154	0x3eb24254	0.3481623
155	0x3e571a3d	0.21006103
156	0xbd03cefa	-0.03217981
157	0xbec18dae	-0.37803406
158	0xbdc41313	-0.095739506
159	0xbdbe1c60	-0.09282756
160	0x3e0784bf	0.13234232
161	0x3e555119	0.20831718
162	0x3e1d73f3	0.15376262
163	0x3e1101b7	0.1416081
164	0x3e9d17d1	0.30682233
165	0x3dccad08	0.099939406
166	0x3e467019	0.193787
167	0x3b21ad87	0.002467008
168	0x3eb3a186	0.3508417
169	0x3d8e1a96	0.069386646
170	0xbc9e5efc	-0.019332401
171	0x3d6ad8a5	0.057335515
172	0x3e13ad49	0.14421572
173	0xbcc8b92f	-0.024502365
174	0x3f04e9d9	0.51919323
175	0xbdce3a42	-0.100697055
176	0x3e896bea	0.26840144
177	0xbecbf4d6	-0.39835232
178	0x3e7706a0	0.24123621
179	0x3e5209f1	0.20511605
180	0x3dd84c59	0.10561437
181	0x3e65c17f	0.22437094
182	0x3d8cae15	0.06869141
183	0xbe31abf2	-0.17350748
184	0x3dc75800	0.097335815
185	0xbe38bf0c	-0.18041629
186	0x3e898e01	0.26866153
187	0x3e3ec1e5	0.18628652
188	0xbe0b4261	-0.1359954
189	0x3b59ab62	0.0033213724
190	0x3de4f98f	0.11180412
191	0xbd6324d1	-0.055455033
192	0x3d86fd1b	0.06591245
193	0xbe4f46ed	-0.202419
194	0x3debd1ce	0.115146264
195	0x3ead1faf	0.33813235
196	0xbd366800	-0.044532776
197	0x3d007d72	0.031369634
198	0xbe515323	-0.2044187
199	0xbc115fda	-0.00887295
200	0xbe89acfb	-0.26889786
201	0x3e3148bb	0.173129
202	0xbdf0d760	-0.117598295
203	0xbd2d159d	-0.04225694
204	0xbe3b42c3	-0.18287186
205	0xbb711d07	-0.0036790983
206	0xbea1962f	-0.31559893
207	0xbdc9aae0	-0.09847045
208	0xbda57f4b	-0.0808092
209	0xbe5a5f9d	-0.21325536
210	0xbc0660de	-0.008201806
211	0x3e31caa0	0.17362452
212	0x3ec51505	0.384926
213	0x3e45869f	0.19289635
214	0xbadc9c53	-0.0016831256
215	0x3dfea0fe	0.124330506
216	0xbd200952	-0.03907139
217	0xbcf3d897	-0.029766364
218	0x3e437ad4	0.19089824
219	0x3e438b4e	0.1909611
220	0xbe305f78	-0.17223918
221	0xbe069244	-0.13141733
222	0xbd7941e9	-0.060853872
223	0x3d8b121a	0.06790562
224	0xbd42d661	-0.04756773
225	0xbdb2dc28	-0.08733398
226	0x3e186712	0.14883068
227	0xbcb0672d	-0.021533573
228	0xbed6e704	-0.41973126
229	0xbe6d9c29	-0.23204102
230	0x3e07af1f	0.13250397
231	0x3e8d6e9c	0.2762345
232	0x3e09dd32	0.13463286
233	0x3db21633	0.086956404
234	0x3d8054b2	0.06266154
235	0x3e5e3c15	0.21702607
236	0xbe0410f9	-0.128971
237	0x3eaa223e	0.3322925
238	0xbe4445cf	-0.19167255
239	0x3dd18c9e	0.10231899
240	0x3d8898aa	0.06669743
241	0x3e1ae6a9	0.15127052
242	0xbdc29502	-0.09501077
243	0x3c037681	0.008023859
244	0xbe815a34	-0.25264132
245	0xbe4c133c	-0.19929212
246	0x3d98aa6d	0.07454381
247	0xbd5c76dd	-0.053824294
248	0x3e8aa248	0.27076936
249	0xbe297a5e	-0.16550586
250	0x3ca1bdf9	0.019743906
251	0x3e57d5fb	0.21077721
252	0xbda3d96d	-0.08000455
253	0xbe650ed0	-0.22368932
254	0xbe92eec3	-0.28697786
255	0x3e8564c6	0.26053447

base.mlp.fc_h.0.bias f4 [64]
0	0x00000000	0.0
1	0x00000000	0.0
2	0x00000000	0.0
3	0x00000000	0.0
4	0x00000000	0.0
5	0x00000000	0.0
6	0x00000000	0.0
7	0x00000000	0.0
8	0x00000000	0.0
9	0x00000000	0.0
10	0x00000000	0.0
11	0x00000000	0.0
12	0x00000000	0.0
13	0x00000000	0.0
14	0x00000000	0.0
15	0x00000000	0.0
16	0x00000000	0.0
17	0x00000000	0.0
18	0x00000000	0.0
19	0x00000000	0.0
20	0x00000000	0.0
21	0x00000000	0.0
22	0x00000000	0.0
23	0x00000000	0.0
24	0x00000000	0.0
25	0x00000000	0.0
26	0x00000000	0.0
27	0x00000000	0.0
28	0x00000000	0.0
29	0x00000000	0.0
30	0x00000000	0.0
31	0x00000000	0.0
32	0x00000000	0.0
33	0x00000000	0.0
34	0x00000000	0.0
35	0x00000000	0.0
36	0x00000000	0.0
37	0x00000000	0.0
38	0x00000000	0.0
39	0x00000000	0.0
40	0x00000000	0.0
41	0x00000000	0.0
42	0x00000000	0.0
43	0x00000000	0.0
44	0x00000000	0.0
45	0x00000000	0.0
46	0x00000000	0.0
47	0x00000000	0.0
48	0x00000000	0.0
49	0x00000000	0.0
50	0x00000000	0.0
51	0x00000000	0.0
52	0x00000000	0.0
53	0x00000000	0.0
54	0x00000000	0.0
55	0x00000000	0.0
56	0x00000000	0.0
57	0x00000000	0.0
58	0x00000000	0.0
59	0x00000000	0.0
60	0x00000000	0.0
61	0x00000000	0.0
62	0x00000000	0.0
63	0x00000000	0.0

base.mlp.fc_h.2.weight f4 [64]
0	0x3f800000	1.0
1	0x3f800000	1.0
2	0x3f800000	1.0
3	0x3f800000	1.0
4	0x3f800000	1.0
5	0x3f800000	1.0
6	0x3f800000	1.0
7	0x3f800000	1.0
8	0x3f800000	1.0
9	0x3f800000	1.0
10	0x3f800000	1.0
11	0x3f800000	1.0
12	0x3f800000	1.0
13	0x3f800000	1.0
14	0x3f800000	1.0
15	0x3f800000	1.0
16	0x3f800000	1.0
17	0x3f800000	1.0
18	0x3f800000	1.0
19	0x3f800000	1.0
20	0x3f800000	1.0
21	0x3f800000	1.0
22	0x3f800000	1.0
23	0x3f800000	1.0
24	0x3f800000	1.0
25	0x3f800000	1.0
26	0x3f800000	1.0
27	0x3f800000	1.0
28	0x3f800000	1.0
29	0x3f800000	1.0
30	0x3f800000	1.0
31	0x3f800000	1.0
32	0x3f800000	1.0
33	0x3f800000	1.0
34	0x3f800000	1.0
35	0x3f800000	1.0
36	0x3f800000	1.0
37	0x3f800000	1.0
38	0x3f800000	1.0
39	0x3f800000	1.0
40	0x3f800000	1.0
41	0x3f800000	1.0
42	0x3f800000	1.0
43	0x3f800000	1.0
44	0x3f800000	1.0
45	0x3f800000	1.0
46	0x3f800000	1.0
47	0x3f800000	1.0
48	0x3f800000	1.0
49	0x3f800000	1.0
50	0x3f800000	1.0
51	0x3f800000	1.0
52	0x3f800000	1.0
53	0x3f800000	1.0
54	0x3f800000	1.0
55	0x3f800000	1.0
56	0x3f800000	1.0
57	0x3f800000	1.0
58	0x3f800000	1.0
59	0x3f800000	1.0
60	0x3f800000	1.0
61	0x3f800000	1.0
62	0x3f800000	1.0
63	0x3f800000	1.0

base.mlp.fc_h.2.bias f4 [64]
0	0x00000000	0.0
1	0x00000000	0.0
2	0x00000000	0.0
3	0x00000000	0.0
4	0x00000000	0.0
5	0x00000000	0.0
6	0x00000000	0.0
7	0x00000000	0.0
8	0x00000000	0.0
9	0x00000000	0.0
10	0x00000000	0.0
11	0x00000000	0.0
12	0x00000000	0.0
13	0x00000000	0.0
14	0x00000000	0.0
15	0x00000000	0.0
16	0x00000000	0.0
17	0x00000000	0.0
18	0x00000000	0.0
19	0x00000000	0.0
20	0x00000000	0.0
21	0x00000000	0.0
22	0x00000000	0.0
23	0x00000000	0.0
24	0x00000000	0.0
25	0x00000000	0.0
26	0x00000000	0.0
27	0x00000000	0.0
28	0x00000000	0.0
29	0x00000000	0.0
30	0x00000000	0.0
31	0x00000000	0.0
32	0x00000000	0.0
33	0x00000000	0.0
34	0x00000000	0.0
35	0x00000000	0.0
36	0x00000000	0.0
37	0x00000000	0.0
38	0x00000000	0.0
39	0x00000000	0.0
40	0x00000000	0.0
41	0x00000000	0.0
42	0x00000000	0.0
43	0x00000000	0.0
44	0x00000000	0.0
45	0x00000000	0.0
46	0x00000000	0.0
47	0x00000000	0.0
48	0x00000000	0.0
49	0x00000000	0.0
50	0x00000000	0.0
51	0x00000000	0.0
52	0x00000000	0.0
53	0x00000000	0.0
54	0x00000000	0.0
55	0x00000000	0.0
56	0x00000000	0.0
57	0x00000000	0.0
58	0x00000000	0.0
59	0x00000000	0.0
60	0x00000000	0.0
61	0x00000000	0.0
62	0x00000000	0.0
63	0x00000000	0.0

base.mlp.fc2.0.0.weight f4 [64, 64]
0	0x3b0cf148	0.002150612
1	0xbadb1bb7	-0.0016716634
2	0xbd6d2389	-0.057895217
3	0xbd5562b9	-0.052096102
4	0xbec1a8d6	-0.37824124
5	0x3e36a426	0.17836055
6	0x3dc73937	0.0972771
7	0x3e218c8e	0.15776274
8	0xbe21fdba	-0.15819445
9	0x3eced59b	0.40397343
10	0x3e8d7669	0.27629402
11	0x3e4355d3	0.19075708
12	0xbdae7b12	-0.085195675
13	0xbd8411cf	-0.06448709
14	0x3e71bea8	0.23607886
15	0x3d980e6c	0.07424626
16	0x3df77044	0.1208196
17	0xbebf6762	-0.37383562
18	0xbe3c1894	-0.18368751
19	0x3ec41fc3	0.38305482
20	0x3cec8d42	0.02887595
21	0xbe66ed18	-0.22551382
22	0xbdf9c5ac	-0.12195906
23	0x3e0b2c10	0.13591027
24	0x3d0dce50	0.034620583
25	0x3e6faa74	0.23404866
26	0xbcba3423	-0.022729939
27	0xbda75d2a	-0.081720665
28	0x3d75b124	0.059983388
29	0x3c3470ce	0.011013223
30	0x3e0998e7	0.13437234
31	0xbe9e5c53	-0.30929813
32	0x3ccc8a1e	0.024968203
33	0xbe0df739	-0.13863839
34	0x3d401717	0.04689702
35	0xbe823cac	-0.25436914
36	0xbc6c13ec	-0.014409047
37	0xbdb15dcb	-0.08660468
38	0x3bf88635	0.007584358
39	0xbe9cc73c	-0.30620754
40	0x3e6ecb92	0.23319843
41	0x3db2c668	0.08729249
42	0x3d26c4c3	0.04071499
43	0xbdae0984	-0.08497909
44	0x3e1d5cd5	0.15367444
45	0xbdc97348	-0.09836441
46	0xbd3b21a5	-0.045686383
47	0x3e5f3057	0.21795784
48	0xbea84dc7	-0.3287184
49	0x3e22a0f0	0.15881705
50	0x3df7644e	0.120796785
51	0xbe643e09	-0.2228929
52	0xbd0d61c7	-0.034517076
53	0xbe266875	-0.16250785
54	0x3e975de6	0.29563826
55	0xbe507230	-0.20356059
56	0x3c883401	0.01662636
57	0xbd70121e	-0.058611028
58	0x3e251b39	0.16123666
59	0x3d9732ac	0.07382712
60	0x3df1b748	0.11802536
61	0xbe91638b	-0.28396258
62	0x3e52119d	0.20514531
63	0xbe7503e6	-0.23927268
64	0xbc9c72b7	-0.019097669
65	0x3f0e20ef	0.55519
66	0xbd2e197b	-0.04250477
67	0x3e029a5c	0.12754196
68	0xbe1b219b	-0.15149538
69	0xbe39a7e3	-0.1813045
70	0xbd950208	-0.07275778
71	0xbc8df4f7	-0.017328722
72	0x3eb6b95e	0.356883
73	0xbd8009b3	-0.0625185
74	0x3e08fed9	0.13378467
75	0xbd0865b7	-0.033300128
76	0xbe292402	-0.16517642
77	0x3e2dc31a	0.16968957
78	0x3e101eac	0.140742
79	0x3d53cee5	0.051710982
80	0x3e27fd51	0.16405226
81	0x3e89cc38	0.2691362
82	0xbd94b2b1	-0.07260645
83	0x3e927a0f	0.28608748
84	0x3e449a56	0.191995
85	0x3e5db7e8	0.21652186
86	0xbcf9a8e2	-0.030476037
87	0x3e14f9cd	0.14548416
88	0xbd4db21a	-0.05021868
89	0x3d4a9364	0.04945697
90	0xbdfe5140	-0.12417841
91	0x3e15d1e5	0.1463085
92	0xbed3ed62	-0.41392046
93	0x3d23cfc1	0.03999305
94	0x3d09f107	0.033677127
95	0xbe83dc6d	-0.2575411
96	0xbe782e3a	-0.24236384
97	0xbdd2696c	-0.10274014
98	0x3e3b9db2	0.18321875
99	0x3e395c69	0.18101658
100	0xbd516c68	-0.051128775
101	0xbc1cb50a	-0.009564647
102	0xbcaafe23	-0.020873135
103	0xbe1d92fc	-0.15388101
104	0xbe1859f6	-0.14878067
105	0x3e060df3	0.13091259
106	0xbec3000f	-0.38085982
107	0x3e8b64d0	0.2722535
108	0x3e22e99b	0.15909426
109	0xbe0fb919	-0.14035453
110	0x3ecaaacc	0.39583433
111	0x3d81796d	0.06321988
112	0xbd90072f	-0.0703262
113	0xbd82722a	-0.06369431
114	0xbdd64319	-0.104620166
115	0xbe30f37c	-0.17280382
116	0xbc008e11	-0.007846371
117	0xbddaffbd	-0.106933095
118	0xbe443abc	-0.1916303
119	0xbe25d7a9	-0.16195549
120	0xbdd379e3	-0.103259824
121	0xbe4b3485	-0.19844253
122	0xbcba12e7	-0.022714091
123	0x3e674f23	0.22588782
124	0x3d8a90c2	0.067658916
125	0xbce3c0bf	-0.02780187
126	0xbe0d5f58	-0.13805902
127	0x3d520b45	0.05128028
128	0x3a103470	0.0005500978
129	0x3d91ae89	0.07113368
130	0x3d69d4f6	0.05708786
131	0x3c07fa58	0.008299433
132	0x3be6bf6c	0.0070418622
133	0x3d45959a	0.048238374
134	0x3d9da45f	0.07697367
135	0xbd4372a2	-0.047716744
136	0xbe353ea1	-0.17699672
137	0x3edcae30	0.43101645
138	0x3b92c0a6	0.004478532
139	0x3d21bb85	0.039485473
140	0x3d8e177f	0.06938075
141	0x3d8cc8c9	0.06874234
142	0x3d6fefbd	0.05857824
143	0xbdc33d16	-0.095331356
144	0xbdb74664	-0.08948973
145	0xbe389214	-0.18024474
146	0xbe059b0d	-0.13047428
147	0xbe4737d0	-0.19454885
148	0x3c2ea85c	0.010660257
149	0xbd259e50	-0.04043418
150	0xbd3cd719	-0.04610357
151	0x3dbf04fd	0.09327123
152	0x3de67d84	0.11254409
153	0xbe8f1d59	-0.27952078
154	0x3ed07030	0.40710592
155	0x3e874a19	0.2642372
156	0x3ce055d8	0.027384683
157	0xbed68c89	-0.41904095
158	0xbd312701	-0.043250088
159	0x39e9bc3a	0.00044581463
160	0x3d996ed9	0.07491846
161	0x3e224518	0.1584667
162	0x3e0e2318	0.13880575
163	0x3db8cbec	0.0902327
164	0x3e9adf3d	0.30248442
165	0x3e4867d1	0.19570853
166	0x3e6291bc	0.22125906
167	0x3d22df41	0.039763693
168	0x3ea45011	0.32092336
169	0x3dfb3ea2	0.12267806
170	0xbd74cfbb	-0.05976842
171	0x3c70179e	0.014654068
172	0x3e14a266	0.14515075
173	0xbd3b351e	-0.045704953
174	0x3f01ffc7	0.5078091
175	0xbe4774a8	-0.19478095
176	0x3ebbeebe	0.36705583
177	0xbec37eb8	-0.38182616
178	0x3e789943	0.24277215
179	0x3e8456fe	0.2584762
180	0x3d0db147	0.034592893
181	0x3e8262af	0.25465915
182	0xbdbcf7f9	-0.092269845
183	0xbddbff58	-0.10742062
184	0x3d5f9da5	0.0545937
185	0xbe4d3fea	-0.20043913
186	0x3e9dec89	0.30844525
187	0x3e745dce	0.23863909
188	0xbdd64407	-0.10462194
189	0x3d8fee28	0.070278466
190	0x3d638621	0.055547837
191	0xbd102295	-0.03518923
192	0x3dd98246	0.10620551
193	0xbe4d0449	-0.20021166
194	0x3db95495	0.09049336
195	0x3e83fd8c	0.25779378
196	0x3d2f3767	0.042777445
197	0xbd892965	-0.066973485
198	0xbe72f1e0	-0.2372508
199	0xbc865699	-0.016398715
200	0xbea256c6	-0.31706828
201	0x3e31f563	0.17378764
202	0xbe8aefa5	-0.2713596
203	0xbdae2079	-0.085022874
204	0xbe0f51cf	-0.13996051
205	0x3d042bb6	0.03226825
206	0xbea97642	-0.33098036
207	0xbdd17dff	-0.1022911
208	0xbcc79fba	-0.024368156
209	0xbe438dce	-0.19097063
210	0x3e1629e1	0.14664413
211	0x3dc76329	0.0973571
212	0x3ee5cdab	0.44883475
213	0x3e3b52ff	0.18293379
214	0xbaae8e43	-0.0013317544
215	0x3e5e6c9e	0.21721122
216	0xbd16b7d4	-0.036796406
217	0xbcef4062	-0.029205505
218	0x3e45bd41	0.19310476
219	0x3e448ea2	0.19195035
220	0xbe403813	-0.1877139
221	0xbd917627	-0.07102614
222	0xbd6ac3b9	-0.057315562
223	0x3d0d83e3	0.034549605
224	0x3cbede5e	0.023299392
225	0xbd0f8702	-0.035040863
226	0x3dca5006	0.098785445
227	0xbccac47e	-0.024751898
228	0xbec9d4bb	-0.39420113
229	0xbe84907a	-0.25891477
230	0x3e3b8691	0.18313052
231	0x3e8fd9fc	0.28095996
232	0x3dea8f6a	0.11453135
233	0x3db4436f	0.088019244
234	0x3d8b03e3	0.06787851
235	0x3e9080f7	0.28223392
236	0xbda831de	-0.082126364
237	0x3ed93aaa	0.4242757
238	0xbe3bc9f7	-0.18338762
239	0x3e117bdc	0.14207405
240	0x3c8bfb8f	0.017087726
241	0x3e3f0429	0.1865393
242	0xbe189866	-0.14901885
243	0x3c25b4a9	0.0101138735
244	0xbe9762c0	-0.29567528
245	0xbe4a02db	-0.19727652
246	0x3dd27aa3	0.10277297
247	0xbe3a1762	-0.18172982
248	0x3e6ef373	0.23335056
249	0xbe463511	-0.1935618
250	0x3d624317	0.055239763
251	0x3e57d96d	0.21079035
252	0xbcb62f57	-0.02223937
253	0xbe63bd76	-0.22240242
254	0xbec69882	-0.3878823
255	0x3e7f9b8c	0.2496168

base.mlp.fc2.0.0.bias f4 [64]
0	0x3cde9b23	0.027173584
1	0x3ca794c9	0.020456688
2	0xbd55dae7	-0.052210715
3	0xbc58fcf2	-0.013243901
4	0x3c5f75a6	0.013638889
5	0x3b03cd3a	0.0020111338
6	0x3c317330	0.0108306855
7	0xbc1bf4ad	-0.0095187845
8	0xbb515993	-0.003194426
9	0x3d9c39a7	0.07628184
10	0xbdc66e2b	-0.096889816
11	0x3d9b0f2c	0.07571253
12	0x3ce54c2b	0.027990421
13	0xbca975e9	-0.020686107
14	0xbb53f5c7	-0.003234254
15	0x3bdf7b67	0.0068201306
16	0xbb235bb8	-0.0024926495
17	0x3cef0697	0.029177947
18	0x3c0c9939	0.008581453
19	0x3da2a75b	0.07942077
20	0xbc71d9be	-0.014761386
21	0x3c47bdce	0.012191249
22	0x3b51f0ce	0.00320344
23	0xbbe1a474	-0.0068860594
24	0xbc8b58cc	-0.017010115
25	0x3d5dfc48	0.054195672
26	0xbd68d172	-0.056840368
27	0xbd6a21df	-0.05716121
28	0x3d2b467e	0.041815273
29	0xbd19d164	-0.037553206
30	0xbd410c09	-0.04713062
31	0x3d1b5bd7	0.037929382
32	0xbc9958e9	-0.018719153
33	0x3df7cc20	0.12099481
34	0xbccd98df	-0.025097309
35	0x3b95c313	0.004570374
36	0xbbdc4e2b	-0.0067231855
37	0xbc9c1903	-0.019054895
38	0x3d7345d9	0.059392784
39	0x3d0fe703	0.03513242
40	0xbd5bfd6d	-0.053708483
41	0xbc760986	-0.015016919
42	0x3c358091	0.011078016
43	0xbcd57a2e	-0.026059236
44	0x3c8038c9	0.015652077
45	0x3cf07f11	0.029357465
46	0xbcc810fa	-0.024422158
47	0x3e069750	0.13143659
48	0x3b83a52c	0.0040174928
49	0x3cb55525	0.022135327
50	0xbd205f54	-0.039153412
51	0xbbaef35b	-0.005339069
52	0x39f47d5d	0.0004663271
53	0x3a7174fe	0.00092108536
54	0x3d4a96e1	0.049460296
55	0xbab4a670	-0.0013782512
56	0xbd309fe7	-0.043121245
57	0xbc810190	-0.015747815
58	0x3d043850	0.032280266
59	0x3c952237	0.018204791
60	0x3d0d09fd	0.034433354
61	0x3b71fd95	0.0036924828
62	0xbd92d246	-0.07169013
63	0xbce06d4d	-0.027395869

base.mlp.fc2.0.2.weight f4 [64]
0	0x3f6e94fd	0.9319609
1	0x3f6f0c81	0.93378454
2	0x3f601d5a	0.87544787
3	0x3f73ed54	0.9528401
4	0x3f79430a	0.9736792
5	0x3f6bdcc4	0.92133737
6	0x3f7a7058	0.9782767
7	0x3f6c7964	0.9237273
8	0x3f6f26df	0.9341869
9	0x3f7ed708	0.9954686
10	0x3f67daba	0.90568125
11	0x3f6e52d9	0.93095165
12	0x3f695972	0.9115211
13	0x3f82d444	1.0221028
14	0x3f7478f1	0.9549704
15	0x3f81bda1	1.0135995
16	0x3f79f1d6	0.9763464
17	0x3f817dcb	1.0116514
18	0x3f71f3fe	0.9451293
19	0x3f75beb2	0.959941
20	0x3f726522	0.94685566
21	0x3f6e24e7	0.9302506
22	0x3f711c22	0.9418355
23	0x3f769751	0.9632464
24	0x3f6ff128	0.9372735
25	0x3f7b8fd7	0.9826636
26	0x3f81d7a4	1.0143933
27	0x3f82e232	1.0225279
28	0x3f833008	1.0249033
29	0x3f7dfb87	0.99211925
30	0x3f753a2c	0.9579189
31	0x3f86012b	1.0469106
32	0x3f777715	0.9666608
33	0x3f53e247	0.82767147
34	0x3f77f964	0.96864915
35	0x3f798628	0.9747033
36	0x3f754a5f	0.95816606
37	0x3f786f17	0.9704451
38	0x3f76f089	0.9646078
39	0x3f6b935f	0.92021745
40	0x3f79057e	0.97274005
41	0x3f781f34	0.9692261
42	0x3f84935a	1.0357468
43	0x3f7a1c0e	0.9769906
44	0x3f899426	1.0748336
45	0x3f84591e	1.0339696
46	0x3f789957	0.9710898
47	0x3f7598ad	0.9593609
48	0x3f7119a4	0.9417975
49	0x3f6cc637	0.9248995
50	0x3f826332	1.0186522
51	0x3f6fd2e9	0.936812
52	0x3f80129e	1.0005682
53	0x3f6d4ea8	0.92698145
54	0x3f81d63b	1.0143503
55	0x3f5fd7fd	0.87438947
56	0x3f80db88	1.0066996
57	0x3f766f38	0.96263456
58	0x3f77892c	0.9669368
59	0x3f77c254	0.96780896
60	0x3f704470	0.9385443
61	0x3f7f138c	0.996392
62	0x3f7bad96	0.98311746
63	0x3f779ea4	0.9672644

base.mlp.fc2.0.2.bias f4 [64]
0	0x3c742b4f	0.014902904
1	0x3c9d3de2	0.019194547
2	0x3a7d3dbe	0.00096603844
3	0xbbe13390	-0.006872602
4	0xbc1d3182	-0.009594323
5	0xbc1749ce	-0.009233905
6	0x3c862140	0.016373277
7	0xbc8c0a19	-0.017094659
8	0x3c84e469	0.016222196
9	0x3cb7625b	0.022385767
10	0x3d7c4a2d	0.061594177
11	0xbd095bb4	-0.03353472
12	0x3c65ae37	0.014018587
13	0xbbdd8151	-0.0067598005
14	0x3d378f72	0.044814534
15	0x3d1ace21	0.037794236
16	0xbc215802	-0.009847643
17	0x3cb7f4c7	0.022455586
18	0x3d77475d	0.06037079
19	0xbd74eb74	-0.059794858
20	0x3cc3196b	0.023815831
21	0xbd177f17	-0.036986437
22	0xbc976de3	-0.018485015
23	0x3c9e4c6c	0.01932355
24	0x3d91b160	0.0711391
25	0x3cacf030	0.021110624
26	0xbac074f7	-0.0014683296
27	0xbc20afd9	-0.00980755
28	0x3cb443c8	0.022004977
29	0xbc0f4cbd	-0.008746323
30	0xbc4090ac	-0.011753242
31	0x3c8bd10f	0.01706746
32	0x3cc3ee97	0.02391748
33	0xbdab0eb0	-0.08352411
34	0x3d078332	0.033084102
35	0xbcce2a5e	-0.025166687
36	0xbca92e82	-0.02065206
37	0xbb815f72	-0.0039481455
38	0x3a13a7a4	0.00056325854
39	0x3c78433e	0.015152751
40	0x3cb5b38d	0.022180343
41	0x3c9b111b	0.018929055
42	0x3cc4f419	0.024042176
43	0xbbd4ad13	-0.0064903586
44	0x3c938a8e	0.018010404
45	0x3cd6e3dd	0.0262317
46	0x3cb5dff9	0.022201525
47	0xbca81188	-0.020516172
48	0xbc9af64a	-0.018916268
49	0xbce91280	-0.028451204
50	0xbc2e57cd	-0.0106410505
51	0xbcda7079	-0.02666496
52	0xbbdb439b	-0.006691409
53	0xbbcbc5f4	-0.006218666
54	0x3caea76b	0.021320065
55	0x3d6e6f02	0.058211334
56	0xbc2fa492	-0.010720389
57	0xbc89ed48	-0.016836777
58	0xbc52965e	-0.012853233
59	0x3cc338b6	0.023830753
60	0x3cca5f0f	0.02470353
61	0xbcd13453	-0.025537645
62	0x39bb6928	0.00035745767
63	0x3ca989e2	0.02069563

v_out.weight f4 [1, 64]
0	0xbda469ca	-0.0802799
1	0xbe14faf4	-0.14548856
2	0xba71b8cc	-0.0009220957
3	0x3ca7c14c	0.020477913
4	0x3dc2823c	0.094974965
5	0xbbfffbfa	-0.0078120204
6	0xbe523bdc	-0.20530647
7	0x3dc272d1	0.09494556
8	0xbea75d4e	-0.32688373
9	0xbded1f83	-0.11578276
10	0x3c65e53a	0.014031703
11	0xbbfda755	-0.007740895
12	0xbdfd979f	-0.12382435
13	0x3ddece2d	0.10879169
14	0xbc8ad2c1	-0.016946198
15	0xbd8ec21e	-0.06970619
16	0x3e014a96	0.12626109
17	0xbdaa42a0	-0.08313489
18	0xbaa20e17	-0.0012363818
19	0x3ce45043	0.027870303
20	0xbd89c243	-0.067265056
21	0x3cf8bb73	0.03036282
22	0x3d739074	0.059463933
23	0xbdef0131	-0.11670149
24	0x3ca59ea4	0.020217247
25	0xbda21dd4	-0.079158455
26	0x3d9175d1	0.0710255
27	0x3e1d5e54	0.15368015
28	0xbe03c054	-0.12866336
29	0x3dab7bd8	0.08373231
30	0x3dc763b8	0.09735817
31	0xbe27d686	-0.16390428
32	0xbda14c8e	-0.0787593
33	0xbbac9178	-0.0052663647
34	0x3d003865	0.031303782
35	0x3d944b00	0.072408676
36	0x3dda1405	0.1064835
37	0x3d919f56	0.07110469
38	0xbd22ac92	-0.039715357
39	0xbdc13451	-0.09433807
40	0x3d163c08	0.036678344
41	0xbe4d1872	-0.20028856
42	0xbdcaab52	-0.09895958
43	0x3d5c9527	0.05385318
44	0xbea9cffc	-0.33166492
45	0xbdbee17b	-0.09320351
46	0xbdc8ebc2	-0.09810592
47	0xbccf2e06	-0.0252905
48	0x3db2ee8e	0.08736907
49	0x3c33ef69	0.010982373
50	0x3e3eed1c	0.18645138
51	0x3d2ffbb6	0.04296466
52	0x3dc8cbce	0.09804498
53	0x3c88b47c	0.016687624
54	0xbe07bc54	-0.13255435
55	0x3a729678	0.0009253989
56	0x3e52e68e	0.20595762
57	0x3dcae7d0	0.09907496
58	0x3e4c6508	0.19960415
59	0xbd9fcce0	-0.07802749
60	0x3ba99ac2	0.0051759193
61	0x3d989b19	0.074514575
62	0x3d830be8	0.06398755
63	0xbe02b710	-0.12765145
